models/tiny_taxinet_pytorch/overcast/best_model.pt (torch_old, 10503 bytes, 8 tensors)

fc1.weight f4 [16, 128]
0.35232553 0.24126035 0.20521918 0.39684203 0.4504838 0.26963043 0.02119222 -0.012512659
0.20917344 0.24061996 0.53197855 0.5711 0.3854331 0.25470737 0.36945286 0.39556915
0.98625124 0.82135373 0.6711531 0.5308502 0.19490592 0.07241236 -0.038941313 0.022719527
-0.04000495 -0.19091903 -0.2778766 -0.1798796 -0.26502755 -0.2235809 -0.055594057 -0.17086446
0.756796 0.5103447 0.47633806 0.30982786 0.105028965 0.052990563 0.18960461 0.09658083
-0.0092368005 -0.029600337 -0.017352693 -0.11774367 -0.27410972 -0.26103318 -0.43553886 -0.61668795
0.7440173 0.5682948 0.36799598 0.2116589 0.20473623 0.13213578 0.10006457 0.11512804
0.038537163 -0.06350895 -0.022870831 0.014223177 -0.11604008 -0.36833373 -0.23962896 -0.41530883
0.65343857 0.39699754 0.4159242 0.21027386 0.2567072 0.15989032 0.11129918 0.059520144
-0.0680577 0.07492593 0.011171337 -0.12047474 -0.08641615 -0.20551589 -0.4246806 -0.56451213
0.6281272 0.30476072 0.24870855 0.21355964 0.22964302 0.13726288 0.18554732 0.0768079
0.058616415 -0.05424159 0.04401889 0.028786885 0.0079878485 -0.0016269822 -0.09937386 -0.262965
0.5899856 0.28081098 0.21917847 0.34688357 0.20454113 0.2592476 0.10198222 0.16957837
0.046527874 0.047277194 -0.15769756 -0.055859335 -0.06630355 -0.060301293 -0.14840342 -0.23097613
0.3939212 0.36992592 0.42015254 0.3488563 0.30544385 0.17023848 0.18358603 0.007086176
0.04346622 -0.082121894 -0.14839531 -0.19908111 -0.24609615 -0.30156133 -0.17565571 -0.23611103
0.039806575 -0.060629357 -0.06683676 -0.044387814 0.02536964 -0.022752758 -0.06791551 0.0075305826
-0.091551356 0.003621873 0.009105629 -0.061218135 -0.04423512 -0.03643927 -0.08353746 0.06558266
-0.04152195 -0.082371525 0.035606716 0.0040041856 0.056459267 0.051472813 -0.039139654 -0.006842968
-0.053428087 0.005132655 0.0021764317 0.024314927 -0.04843942 0.00019193627 -0.062125176 -0.03886371
-0.09244603 -0.077525266 -0.06121786 -0.024619939 -0.09184656 0.061391562 0.025994388 -0.069990695
0.06934198 0.05757567 -0.023472266 -0.053254243 -0.030277599 -0.040238403 -0.056630213 -0.0319137
0.054474182 -0.024401374 -0.01472829 0.07558884 0.08160369 0.07813775 -0.0429885 0.06992412
0.0125347 0.053618558 -0.05585565 -0.009651978 0.027449844 0.07460775 -0.036425643 -0.0631865
-0.05807313 0.024924591 0.07946963 -0.08392173 -0.07947035 0.045344383 -0.0719351 0.03850355
-0.027138261 -0.06157288 -0.0059311874 0.0632915 -0.03810754 -0.04083917 0.039889716 -0.007058237
0.07229655 -0.034335103 0.063863225 -0.0906276 -0.058463525 0.055512182 0.03610319 -0.035663597
-0.033549048 -0.017872933 0.07364232 -0.088157885 0.029882465 -0.048222203 -0.009987358 -0.07044993
-0.07769467 -0.09146746 0.06950639 0.06896009 -0.057228714 -0.044711698 0.07356157 0.028535929
0.012985532 0.013064444 0.06322987 0.06412787 -0.03651638 -0.005550818 0.015072223 -0.03592772
0.0708221 0.07781222 -0.088542864 0.019924775 0.022336008 -0.03946122 0.06494009 -0.091174714
-0.014424309 0.069874175 0.026930138 -0.0516972 0.07762938 0.039774098 0.024843736 -0.06206013
00000000: 0364 b43e f40c 773e fa24 523e e12e cb3e
00000010: d0a5 e63e 000d 8a3e 4e9b ad3c e501 4dbc
00000020: 9031 563e 1465 763e bf2f 083f 9c33 123f
00000030: 7d57 c53e 0169 823e ed28 bd3e 0a88 ca3e
00000040: f67a 7c3f 3d44 523f b1d0 2b3f cce5 073f
00000050: 6b95 473e ee4c 943d ed80 1fbd 4d1e ba3c
00000060: 3bdc 23bd 4780 43be d745 8ebe 5c32 38be
00000070: b1b1 87be 64f2 64be 98b6 63bd 18f7 2ebe
00000080: 62bd 413f f3a5 023f 95e2 f33e c2a1 9e3e
00000090: 6d19 d73d a20c 593d b627 423e 2ccc c53d
000000a0: f355 17bc 687c f2bc 3c27 8ebc 9823 f1bd
000000b0: 1c58 8cbe 24a6 85be f3fe debe 43df 1dbf
000000c0: eb77 3e3f c57b 113f f869 bc3e 1cbd 583e
000000d0: 60a6 513e 9a4e 073e a7ee cc3d 40c8 eb3d
000000e0: 25d9 1d3d fb10 82bd 9c5b bbbc 5408 693c
000000f0: 6ca6 edbd 3d96 bcbe 4b61 75be 5ca3 d4be
00000100: c047 273f 4343 cb3e 04f4 d43e 0852 573e
00000110: 206f 833e 4aba 233e d3f0 e33d 65cb 733d
00000120: d661 8bbd c472 993d fc07 373c 76bb f6bd
00000130: f3fa b0bd c272 52be bc6f d9be de83 10bf
00000140: f2cc 203f 9909 9c3e 74ad 7e3e 61af 5a3e
00000150: 8a27 6b3e a48e 0c3e 1e00 3e3e 764d 9d3d
00000160: c417 703d 6e2c 5ebd 274d 343d 79d2 eb3c
00000170: 77df 023c 7740 d5ba 8684 cbbd 59a3 86be
00000180: 4c09 173f 75c6 8f3e 5270 603e b99a b13e
00000190: 3b73 513e 1abc 843e 0edc d03d f4a5 2d3e
000001a0: 0394 3e3d bba5 413d 787b 21be c2cc 64bd
000001b0: 28ca 87bd 7dfe 76bd 11f7 17be 0285 6cbe
000001c0: 0ab0 c93e ee66 bd3e 3c1e d73e 4b9d b23e
000001d0: 2363 9c3e ff52 2e3e fafd 3b3e 2733 e83b
000001e0: a309 323d 862f a8bd f1f4 17be ebdb 4bbe
000001f0: a100 7cbe 3f66 9abe 17df 33be 17c7 71be
00000200: 380c 233d 7d56 78bd b6e1 88bd ffcf 35bd
00000210: fed3 cf3c fe63 babc 4917 8bbd 1bc3 f63b
00000220: 477f bbbd f25c 6d3b c72f 153c debf 7abd
00000230: e32f 35bd 5841 15bd b015 abbd 3450 863d
00000240: ec12 2abd 67b2 a8bd 59d8 113d 8b35 833b
00000250: d541 673d 28d5 523d e750 20bd fa3a e0bb
00000260: 69d7 5abd d52f a83b 77a2 0e3b 1930 c73c
00000270: 6a68 46bd 8042 4939 f876 7ebd 8e2f 1fbd
00000280: 5854 bdbd 91c5 9ebd 94bf 7abd c1af c9bc
00000290: 0d1a bcbd b875 7b3d 2ff2 d43c 4857 8fbd
000002a0: 2b03 8e3d 77d4 6b3d e948 c0bc 1f21 5abd
000002b0: ba08 f8bc 06d1 24bd 15f5 67bd f1b7 02bd
000002c0: 5220 5f3d 64e5 c7bc ed4e 71bc 52ce 9a3d
000002d0: d61f a73d af06 a03d b614 30bd 6134 8f3d
000002e0: 585e 4d3c 229f 5b3d e5c8 64bd 5423 1ebc
000002f0: 7fde e03c f3cb 983d 0e33 15bd ec67 81bd
00000300: 17de 6dbd a82e cc3c f9c0 a23d 28df abbd
00000310: 5ac1 a2bd 08bb 393d b652 93bd e6b5 1d3d
00000320: 0f51 debc d833 7cbd 685a c2bb f99e 813d
00000330: a716 1cbd f946 27bd 6663 233d c948 e7bb
00000340: 3710 943d f7a2 0cbd b9ca 823d f79a b9bd
00000350: 7377 6fbd be60 633d f0e0 133d fe13 12bd
00000360: ba6a 09bd 426a 92bc c9d1 963d 1f8c b4bd
00000370: 12cc f43c a584 45bd 04a2 23bc 0e48 90bd
00000380: 621e 9fbd 4b53 bbbd 5e59 8e3d f33a 8d3d
00000390: a868 6abd 9d23 37bd 73a7 963d 2ec4 e93c
000003a0: 45c1 543c 400c 563c a97e 813d 7955 833d
000003b0: 3392 15bd a3e3 b5bb 7cf1 763c f228 13bd
000003c0: 2d0b 913d 035c 9f3d f655 b5bd 4839 a33c
000003d0: 01fa b63c 17a2 21bd 4fff 843d cfb9 babd
000003e0: f053 6cbc 311a 8f3d 989c dc3c 71c0 53bd
000003f0: 27fc 9e3d 2aea 223d 1785 cb3c c332 7ebd

fc1.bias f4 [16]
0.08924321 -0.007938443 0.020858474 0.09610702 -0.07865472 -0.066349946 0.0879765 -0.004837192
0.03508715 0.07697334 -0.023226857 0.028092062 -0.0052176495 0.0045030555 -0.0075253015 -0.054522693
00000000: 25c5 b63d 3e10 02bc 64df aa3c c2d3 c43d
00000010: ba15 a1bd 7be2 87bd 062d b43d 4f81 9ebb
00000020: 8bb7 0f3d 33a4 9d3d 4046 bebc 5321 e63c
00000030: d1f8 aabb 5e8e 933b ce96 f6bb 3053 5fbd

fc2.weight f4 [8, 16]
0.21843715 -0.1815845 -0.13850987 0.2397966 -0.22297704 -0.11848848 -0.35598698 0.27110934
-0.70666903 -0.17514116 2.2599034 -1.4382371 -1.169294 0.0035259724 0.37708804 -0.24446148
0.1912041 -0.14029945 0.2056283 0.03553563 -0.17436919 0.016097026 0.9360838 0.53904575
0.34588847 0.24584526 -0.13282235 0.041741125 0.48238507 0.024595961 -2.2347858 -0.087391846
-0.2662448 0.15043637 0.24973437 -0.1094011 0.026450455 0.029657966 0.7292657 0.6297307
-0.091138065 -0.14332181 -0.18831797 -0.7491089 1.92739 -0.16488953 -1.7394625 0.0011621552
-0.12136734 0.17441216 0.07792884 0.35438886 -0.16890144 0.053197447 0.0857455 0.37885103
-0.19991815 0.19089988 0.43348125 -2.172967 1.3751228 -0.23756325 -1.186542 -0.19551131
-0.20188697 -0.19460696 0.15953553 -0.42347065 -0.04095167 0.83909565 0.33874407 0.3318865
0.0003731401 0.10657051 0.07765289 -0.48163697 1.619889 0.16899672 -0.51718307 -0.16646644
0.72271127 0.05978282 0.20128748 0.80414593 0.04909411 0.015142852 -0.67661375 -0.27527183
0.14731602 0.18247995 0.8751992 0.6152044 -1.1726108 -0.14040366 0.11689966 0.0604813
0.26476616 0.06359571 -0.20448509 0.1619127 -0.0985764 0.24907212 0.08919522 0.2689003
-0.26481834 0.22198433 -0.13607447 -2.6273327 1.4436926 -0.08556547 -0.0610366 -0.023170585
-0.18695553 0.0101601165 -0.061027616 -0.21451847 -0.071612895 0.11389923 0.23079903 -0.19133346
-0.21044476 0.036449254 -0.056877986 -0.066400155 0.15363488 -0.12164166 0.16332492 0.072715096
00000000: fdad 5f3e 4af1 39be 88d5 0dbe 3d8d 753e
00000010: 1854 64be 17aa f2bd ed43 b6be d8ce 8a3e
00000020: 43e8 34bf 3458 33be 42a2 1040 2718 b8bf
00000030: 6dab 95bf 0014 673b af11 c13e 1c54 7abe
00000040: 02cb 433e a9aa 0fbe 3a90 523e cf8d 113d
00000050: d68d 32be e9dd 833c 30a3 6f3f e7fe 093f
00000060: 4b18 b13e dcbe 7b3e 9502 08be bef8 2a3d
00000070: 2dfb f63e 787d c93c bb06 0fc0 7ffa b2bd
00000080: 3d51 88be fe0b 1a3e 5eba 7f3e af0d e0bd
00000090: a0ae d83c 43f5 f23c 28b1 3a3f 0836 213f
000000a0: 98a6 babd f4c2 12be 6dd6 40be 9ac5 3fbf
000000b0: b7b4 f63f cdd8 28be b5a6 debf 7553 983a
000000c0: 718f f8bd 1a99 323e 2899 9f3d 7572 b53e
000000d0: 80f4 2cbe 91e5 593d 569b af3d c3f8 c13e
000000e0: 58b7 4cbe 427b 433e 41f1 dd3e e411 0bc0
000000f0: 0604 b03f c843 73be 9ce0 97bf 1e34 48be
00000100: 75bb 4ebe 0c47 47be 485d 233e 25d1 d8be
00000110: f0bc 27bd f9ce 563f dd6f ad3e 07ed a93e
00000120: 04a2 c339 a441 da3d 7a08 9f3d 1f99 f6be
00000130: 8658 cf3f 7a0d 2d3e 1c66 04bf 2e76 2abe
00000140: 9b03 393f d5de 743d 4e1e 4e3e 82dc 4d3f
00000150: e816 493d ba19 783c 8f36 2dbf 6ef0 8cbe
00000160: 03da 163e 06dc 3a3e 0e0d 603f 097e 1d3f
00000170: 1c18 96bf fac5 0fbe 1769 ef3d 3dbb 773d
00000180: 6e8f 873e 783e 823d 8a64 51be 71cc 253e
00000190: 6ce2 c9bd c30c 7f3e fcab b63d 4dad 893e
000001a0: 4596 87be dc4f 633e 1b57 0bbe 3826 28c0
000001b0: ebca b83f f33c afbd 8401 7abd 3dd0 bdbc
000001c0: 4571 3fbe 9e76 263c 18f8 79bd bbaa 5bbe
000001d0: c8a9 92bd 0044 e93d 9556 6c3e ebec 43be
000001e0: d57e 57be d04b 153d e4f8 68bd cefc 87bd
000001f0: 7652 1d3e 431f f9bd a63e 273e a7eb 943d

fc2.bias f4 [8]
-0.3565556 0.5071522 0.05700458 0.123303175 -0.14465247 0.026282372 0.07476234 0.15420806
00000000: 758e b6be bad4 013f a27d 693d 6086 fc3d
00000010: c71f 14be 214e d73c ff1c 993d b8e8 1d3e

fc3.weight f4 [8, 8]
-1.7999834 0.28796253 -0.37120083 1.6054924 0.29355156 -0.18185031 0.919314 0.33248937
-0.69821906 0.5788571 1.7289331 0.8939766 -2.8730786 -0.62351185 -0.2532374 -0.2601511
-0.5149231 0.23441003 0.111003004 1.5786582 -0.36371404 -0.06600745 0.7975554 0.27608433
0.40910652 0.2403445 1.4583688 0.6103343 -2.9025595 -0.63126945 0.118027724 0.032912526
-0.2860874 0.7330487 0.302635 1.1271489 -1.508363 -0.59235615 0.8299744 -0.32556844
-1.1460155 0.042572398 -1.2863213 -1.0521669 1.3563819 1.1259048 -1.1226994 0.13231309
-0.8135754 -0.16642234 -1.797669 -0.81965005 -0.096118666 1.0622633 -0.3004696 -0.059319973
-2.1803412 0.60060024 -0.35857785 -2.2208517 0.70643556 1.0687698 -1.5014044 0.15934159
00000000: db65 e6bf d36f 933e 090e bebe c680 cd3f
00000010: 644c 963e f836 3abe 2a58 6b3f 0c3c aa3e
00000020: 7cbe 32bf fb2f 143f ae4d dd3f a7db 643f
00000030: 85e0 37c0 799e 1fbf 55a8 81be 8632 85be
00000040: 00d2 03bf 2f09 703e 8b55 e33d 7911 ca3f
00000050: ba38 babe ea2e 87bd 972c 4c3f ed5a 8d3e
00000060: 6976 d13e de1c 763e d4ab ba3f de3e 1c3f
00000070: 89c3 39c0 e09a 21bf 85b8 f13d 49cf 063d
00000080: 0c7a 92be 14a9 3b3f faf2 9a3e 6a46 903f
00000090: 0a12 c1bf a7a4 17bf 3479 543f e8b0 a6be
000000a0: a3b0 92bf 6560 2e3d 2da6 a4bf 68ad 86bf
000000b0: ec9d ad3f a61d 903f 9db4 8fbf 157d 073e
000000c0: 7a46 50bf 9e6a 2abe 051a e6bf 96d4 51bf
000000d0: ddd9 c4bd 3ef8 873f 27d7 99be 80f9 72bd
000000e0: b68a 0bc0 f0c0 193f 8497 b7be 6f22 0ec0
000000f0: f6d8 343f 73cd 883f 052e c0bf 712a 233e

fc3.bias f4 [8]
0.4578247 0.50086325 0.34219235 0.7229906 0.45982316 0.08449943 0.2167375 0.8518754
00000000: 0068 ea3e 9338 003f d633 af3e e915 393f
00000010: f16d eb3e 0a0e ad3d 6ff0 5d3e 8214 5a3f

fc4.weight f4 [2, 8]
0.8699113 -1.6426605 0.6040776 -1.5519649 -0.11281351 0.8718625 0.9293849 -0.62630826
0.8842628 1.8267227 0.76945794 1.1482546 1.0442005 -1.4725535 -1.4579864 -2.1514003
00000000: 82b2 5e3f b342 d2bf d4a4 1a3f c9a6 c6bf
00000010: c50a e7bd 6132 5f3f 2bec 6d3f bd55 20bf
00000020: 0c5f 623f 0dd2 e93f 32fb 443f 02fa 923f
00000030: 5da8 853f a27c bcbf 4c9f babf 8bb0 09c0

fc4.bias f4 [2]
-0.32790512 -0.04344864
00000000: 2ee3 a7be 33f7 31bd
