models/tiny_taxinet_pytorch/afternoon/best_model.pt (torch_old, 10503 bytes, 8 tensors)

fc1.weight f4 [16, 128]
00000000: fc23 99bc c8e9 713c 7060 fb3c c0b1 543b
00000010: e5bf 953d 310a 883d 902d aabd be8c 283d
00000020: 80af 123a b0ce abbd 6650 463d 682a 343c
00000030: 0895 f2bc ea08 94bd e0c0 4a3c 4800 a63c
00000040: b83c aebd c83d 8ebc d8ba 493c 01fd 06bd
00000050: 1d2f 28bd e948 803d 68c5 903c 72ff 5b3d
00000060: 3757 873d 030c 9bbd 86ac 763d fd5c abbd
00000070: 5bbc 90bd c434 9fbd 5c96 133d 7770 13bd
00000080: 0433 afbd a1ec 45bd 507c 66bd f00a aebc
00000090: da00 22bd 5448 adbc e862 eb3c 2423 c43c
000000a0: 3960 993d f517 49bd d5f4 81bd 0afb edbc
000000b0: caaf 0e3d 5e73 133d 01bb 8d3d 68fd a53c
000000c0: 9b61 8b3d ccc0 bebc 04b7 0a3d 1db4 963d
000000d0: 4802 513c 7886 3cbd c76e 8cbd e839 93bd
000000e0: 8442 893c d062 d03b 30d1 83bc 8a1c 82bd
000000f0: 2a52 643d fa5e 773d 635f 60bd 7054 9fbc
00000100: 8074 98bb 29a2 ad3d 9feb 8a3d 5968 75bd
00000110: d209 583d 0884 8dbd 236a 5cbd 6679 453d
00000120: 614a 9d3d 698e af3d 84c9 b4bc df8f 1ebd
00000130: 023b 213d 600f 0ebc a192 933d 0e58 393d
00000140: 18fb 23bd aea6 69bd d83c 20bc 9153 95bd
00000150: 22e2 d4bc 2383 983d 94be 8e3c 8024 3aba
00000160: f20b 3d3d 9762 0ebd 248a 803c 30b3 fd3c
00000170: e471 dfbc 6049 bfbb d3e6 ac3d 78b8 e23c
00000180: a6fe 1c3d 2f49 55bd 30aa 8fbc e25b 703d
00000190: 3af2 b1bd 683a 3abc dc7d 9abc 8034 33ba
000001a0: e8c5 75bd 007e c6ba 80a6 a0bc 69b2 9b3d
000001b0: d95d 15bd 18f2 cabc 57f7 25bd 4061 8c3a
000001c0: f0d7 65bc 5632 713d 880d 9cbd 34fa 93bd
000001d0: b046 46bd 1ed0 423d bdbf 78bd a1bc abbd
000001e0: 14de d73c 7889 493c cac3 74bd d875 bdbc
000001f0: 9689 343d 6b0f 853d 0675 783d 575e acbd
00000200: b0d6 42bc 329f 1f3d efcf a3bd 4d32 27bd
00000210: 8121 fb3c cad0 793c a41b aabd b0c7 7f3d
00000220: 755f 1a3d 25e1 9e3d 2d4c 863d 92b5 55bd
00000230: caf9 02bd 50c4 673d c172 b5bd 0966 0ebd
00000240: a963 1e3c 8927 803d 73c3 63bd b730 99bd
00000250: fa9a 88bd 856a 2c3d 311b 6e3d e11c 7cbd
00000260: 4790 983d f361 69bd 60a4 9dbd f05c 9b3d
00000270: 8c24 1abd e9ed 203c 2f81 a4bc ad1f 9fbc
00000280: df37 3abb 218e 48bd f028 9abd cefd 953d
00000290: 8708 42bd 1f11 893c 53d8 963d c976 b53c
000002a0: 73f9 9d3d 4f62 883d 0c20 8cbc daa7 07bd
000002b0: 3e6f 82bc 4ed5 ab3c d04d 7b3d 7a2c 453b
000002c0: 5255 4e3d cb53 12bc d941 efbc fa1e f6bc
000002d0: e680 b4bd d161 9cbd 20f3 553d f664 9fbd
000002e0: 53af bebd b3ec 7fbd 54c4 a83b 0897 f23c
000002f0: 2bc2 83bc 4efd 973d 5899 043c b935 1d3b
00000300: 2225 aa3b 59b5 0bbd 9783 27bd d855 b2bd
00000310: 1d4c 5fbd 7b70 a4bd 7123 bbbc a636 a4bd
00000320: 3716 413d 4c21 103d 2454 a3bd b6f6 d73c
00000330: 68df c0bc 47e3 7a3d ca8b 6fbd 158a 8fbc
00000340: bea5 d2bb 4e9d 1f3d 7266 a53d a40e 5c3d
00000350: e8c5 2bbc 0173 c1bc 3aa8 8c3c 26ef 2c3d
00000360: 4c3e 503c 1c80 b1bc 5dbc 9fbc d4bf a43d
00000370: bde5 73bb a5d4 843d 01aa 6dbd 8b66 e4ba
00000380: 2f16 933d 3c92 7cbc bae8 bbbd ac82 4a3c
00000390: d150 913d b316 573d 64d4 693d 78af a3bd
000003a0: 89fb 4f3d 7674 8a3d 5977 c3b9 58fb b1bd
000003b0: f906 81bd 4adb 6cbd 2aef 483d a121 c5bc
000003c0: 0098 abbd 9a5b 723c 33bb a43d 4d68 853d
000003d0: 27cf 8ebd 4c9d 84bd a830 77bd 6af3 873d
000003e0: 5606 0e3d 0899 a73d 07aa 4abd 6f71 44bd
000003f0: a72a 55bb ae5f d8bc a477 aebd 2fff 7dbd
-0.018693916 0.01476521 0.030685633 0.003245458 0.073119916 0.06642569 -0.083094716 0.041149847
0.00055956095 -0.08389032 0.048416518 0.010996439 -0.02961208 -0.07228263 0.012375087 0.020263806
-0.08507675 -0.017363444 0.012312613 -0.032956127 -0.041060556 0.062639065 0.017672256 0.05371041
0.06608432 -0.075706504 0.060223125 -0.083673455 -0.07067176 -0.07773736 0.036032066 -0.035995927
-0.08554652 -0.04832137 -0.056270897 -0.02124545 -0.039551593 -0.021152653 0.028733686 0.023942538
0.07489056 -0.049095113 -0.06345526 -0.029050369 0.034835614 0.035998695 0.06920434 0.020262435
0.06805726 -0.023285292 0.033865944 0.07358573 0.012756892 -0.046026677 -0.068570666 -0.07188779
0.01675535 0.0063594356 -0.01609096 -0.063531 0.05574242 0.06039331 -0.054778468 -0.019449443
-0.0046525598 0.08478195 0.067832224 -0.059913967 0.05274374 -0.069099486 -0.053812157 0.048211478
0.07680202 0.085720845 -0.022068746 -0.038711425 0.039362915 -0.008670658 0.072057016 0.04524999
-0.040034384 -0.057043724 -0.009780131 -0.0729133 -0.025986735 0.07446887 0.01742486 -0.0007100776
0.04615397 -0.03476199 0.01569087 0.030969232 -0.027275987 -0.0058376044 0.08442464 0.027675852
0.03832879 -0.052071746 -0.017537206 0.058681376 -0.08688779 -0.011366464 -0.018858843 -0.0006836131
-0.06000319 -0.0015143752 -0.019610643 0.076023884 -0.036466453 -0.024773642 -0.040519085 0.0010710135
-0.014028534 0.058885895 -0.076197684 -0.07225457 -0.048407257 0.047561757 -0.06072973 -0.083855875
0.026351012 0.0123008415 -0.05975703 -0.023127481 0.044076525 0.06497081 0.060658477 -0.084164314
-0.011892006 0.03897018 -0.079986446 -0.040819455 0.030655624 0.015247533 -0.08306053 0.062446296
0.03768869 0.07757787 0.06557498 -0.052175112 -0.0319765 0.056583703 -0.08859778 -0.034765277
0.0096673155 0.06257541 -0.055606317 -0.07479995 -0.066701844 0.042093772 0.0581314 -0.06155098
0.07449394 -0.056978177 -0.07697368 0.07586086 -0.03763251 0.009822347 -0.02008113 -0.019424284
-0.002841465 -0.04896367 -0.075273395 0.073238 -0.047371414 0.016731797 0.07365479 0.022151368
0.07713594 0.06659376 -0.017105125 -0.03311906 -0.015922185 0.020975735 0.061353505 0.0030086325
0.050374337 -0.008931111 -0.029206203 -0.030044068 -0.08813648 -0.076358445 0.052233815 -0.07782929
-0.09310784 -0.062481593 0.0051503573 0.029613033 -0.016083797 0.07421361 0.008093201 0.002398832
0.005192415 -0.034108493 -0.04089698 -0.0870778 -0.054515947 -0.080292664 -0.022844048 -0.08018236
0.047140326 0.035188004 -0.07975033 0.026362758 -0.023544028 0.061251905 -0.058482923 -0.017521897
-0.0064284494 0.038968377 0.080761805 0.0537249 -0.010484196 -0.023614408 0.01717006 0.042220257
0.012710165 -0.021667533 -0.019498998 0.08044401 -0.0037215792 0.06485871 -0.058023456 -0.001742558
0.071819656 -0.015415724 -0.091752484 0.012360256 0.07095493 0.052511882 0.057087317 -0.079924524
0.050776992 0.067604944 -0.0003728222 -0.08690518 -0.06300158 -0.057826318 0.04905621 -0.024063887
-0.08378601 0.014792347 0.08043518 0.065140344 -0.06973105 -0.064753145 -0.060349137 0.066382244
0.03467401 0.08183485 -0.049478557 -0.04795974 -0.0032526643 -0.026412811 -0.085189134 -0.06201094

fc1.bias f4 [16]
00000000: 96d2 97bd 1402 90bd c317 033e e5bf 85bd
00000010: 76a8 84bd ca73 833e 269c d0ba dfb7 b3bd
00000020: 48df 52bc 227f 7e3d f089 e6bb 4e81 2dbd
00000030: da2d bbbd f631 583d a067 da3b 00d0 dfbc
-0.07413213 -0.07031646 0.12802033 -0.065307416 -0.06477444 0.25674278 -0.0015915676 -0.08775305
-0.012870617 0.062132962 -0.0070354864 -0.042359643 -0.09139605 0.05278202 0.006665185 -0.027320862

fc2.weight f4 [8, 16]
00000000: c055 6abe f676 6ebe c4f6 c13d eca6 f83d
00000010: efa7 2ebe a190 65be f659 aabd efd7 cd3d
00000020: 70ba 7abe 803e 643b c8be 3dbd e511 1f3e
00000030: e556 47be 0332 c83c 58a2 afbd 7c77 1b3e
00000040: 880f 7c3e 934d 74be f582 c7be d4df c93d
00000050: 8da9 a8bf 9ba1 6c3e 9f8c 85be 8427 05be
00000060: 7a26 353e 20b0 ef3c a2ff 5dbe 80a6 0540
00000070: 9756 02be 826f 0d3f dad5 3c3e ecc9 283e
00000080: fe93 21be ac3e 04bc 2cd7 29bf f025 86bd
00000090: 6b4b 44bf c322 b23e 047e 01bf c11b 943d
000000a0: 8efa 203e b8fe 08bd 487f 41be ce88 9c3f
000000b0: 9f00 4ebe e71f c33f 2c4d ef3d ae90 4cbe
000000c0: 9442 c9bd cdf6 e7bd 6655 e93b 5000 193e
000000d0: e099 ddbf e00b 933c 6699 c23e eda9 b5bd
000000e0: 12b4 48be 88bb 49be c0b5 35be 24a2 0e40
000000f0: 81b9 24be 965e 353f 8c83 ebbd c06e 9e3b
00000100: 68d5 163d 0feb 77bd 024f 48be ba68 4f3e
00000110: e841 103e 1f9f 60be 35eb 49be 5c52 87bd
00000120: 4cf3 093e c09e 893c b0c7 75bd 4495 f53d
00000130: fb53 253e 1270 003e 72e1 7e3e 46e3 6cbe
00000140: 4af7 2a3e c08d 503c 3635 c5be 5445 ddbd
00000150: a60d b3bf 0900 683e 8fd7 5bbe 78c7 0bbe
00000160: c0a6 bfbc 200a 613e a03d 323e 4e4a a83f
00000170: 3022 bb3c 2197 463f f874 53bd 0022 f7bb
00000180: ca41 4dbe 8961 03be cbeb e1bf b85d b83d
00000190: 038f 273e 4f75 a33f 1bc3 a9be 0c1c ff3d
000001a0: 6059 353d 7814 4abe 60fb 3cbd 3623 3440
000001b0: 6f4f 7ebe 467e 6fc0 ae57 333e f4af 2bbe
000001c0: 0889 f0bd 14b6 0abe 022c 603f e474 33be
000001d0: 20bf 2f3f 6a40 653e 1a7f 103f 181d c33d
000001e0: 2ca2 2f3e 1880 4c3d 6e20 37be 3ae6 3dbf
000001f0: 4416 95bc 4a00 c6bf 90c3 033e 38f1 bf3d
-0.22884274 -0.23287567 0.09470895 0.12141213 -0.17056249 -0.22418453 -0.0831794 0.10050952
-0.24485183 0.0034827292 -0.04632452 0.1553417 -0.19466741 0.02443791 -0.085758865 0.15182298
0.246153 -0.23857717 -0.389671 0.09857145 -1.3176743 0.23108523 -0.26083848 -0.13003355
0.17690459 0.029258788 -0.21679547 2.0882874 -0.12728344 0.5524827 0.18440953 0.16483277
-0.15779111 -0.008071583 -0.6634395 -0.06550205 -0.7667758 0.34792146 -0.5058291 0.07231856
0.15720579 -0.033446044 -0.1889621 1.222925 -0.20117424 1.5244111 0.11684641 -0.19977066
-0.09827152 -0.113263704 0.007120776 0.14941525 -1.7312584 0.017949998 0.3800766 -0.088703014
-0.19599941 -0.19700444 -0.17745113 2.2286463 -0.16086389 0.7084745 -0.114997 0.00483498
0.036824614 -0.060526904 -0.19561389 0.20254794 0.14087641 -0.219357 -0.1971863 -0.06607506
0.13471717 0.01679933 -0.06000489 0.11991361 0.16145317 0.12542751 0.24890688 -0.23133573
0.16695896 0.012729108 -0.3851716 -0.10804239 -1.398854 0.22656263 -0.21468948 -0.1365031
-0.023394942 0.21976519 0.1740632 1.3147676 0.02284345 0.77574354 -0.051625222 -0.007541895
-0.20044628 -0.12830175 -1.7650083 0.090022504 0.16363148 1.2770175 -0.33156666 0.124565214
0.044274688 -0.1973437 -0.046138167 2.814649 -0.24834989 -3.742082 0.17513916 -0.1676634
-0.11744887 -0.1354602 0.8756715 -0.17525059 0.6865101 0.22387853 0.5644394 0.095270336
0.17151707 0.049926847 -0.17883465 -0.7417942 -0.018199094 -1.5468838 0.1286757 0.09372181

fc2.bias f4 [8]
00000000: 2e86 283e 6f89 953d 2c55 d93d c4d1 d2bd
00000010: 1baf 3f3e 1fc3 c8bc 515a 14bd f745 a93e
0.16457435 0.07301604 0.10611948 -0.10293916 0.18719141 -0.024507103 -0.036218945 0.3306119

fc3.weight f4 [8, 8]
00000000: 0bd6 933e 0853 41be d078 fcbc 8bf5 a9be
00000010: f8d2 efbd 1fd4 0fbe dd47 3dbe 3982 a1be
00000020: 12c5 f9bd 8ab2 d23f cabd 553f 2a16 f43f
00000030: e277 9cbe df51 723f 44a4 963e 4051 28be
00000040: a90f cfbd aac7 90bf 254f c4bf 001a 19be
00000050: c2b2 4c3e 5133 c3bf acde d3be 149d 873f
00000060: 2933 bf3c 46ed 20bf 94df 36bf b41b e0bf
00000070: 5da1 443e 3a6d a1bf be8d 083f 993d 183f
00000080: d745 253e 3685 9d3f 0e03 ac3f f619 053f
00000090: 39c6 a8bd 205d c03f eef7 063f efbe 40bf
000000a0: 4f67 23be 373d bdbe 1ec4 983e a0c8 04c0
000000b0: ec59 6c3e 2706 a0be bb0c 413f ed56 2c3f
000000c0: 87fe b0be 67a6 af3e e86b d2bd 0ffe 88be
000000d0: 84cf ce3d 8acc ddbd 001d 56bb a243 79be
000000e0: d5ca afbe 74b4 f23e ba3d 993f 7cb4 633f
000000f0: a68e 713e 743c 353f 6b3f 46be 6569 26bf
0.2887424 -0.1887933 -0.030819327 -0.33195147 -0.11710161 -0.14045762 -0.18484445 -0.31544665
-0.12195791 1.6460736 0.8349272 1.9069264 -0.30560213 0.94656175 0.294222 -0.16437244
-0.10110409 -1.1310933 -1.5336653 -0.14951324 0.19990066 -1.5250036 -0.41380823 1.0594811
0.023339825 -0.6286205 -0.71434903 -1.7508454 0.1920218 -1.2611458 0.5334128 0.5946899
0.16139923 1.2306278 1.3438432 0.5199274 -0.08240933 1.502842 0.5272206 -0.7529134
-0.15957378 -0.36960766 0.29837126 -2.0747452 0.23081177 -0.31254694 0.7541005 0.6732014
-0.3456919 0.34306642 -0.10274488 -0.2675633 0.10098174 -0.10830028 -0.0032671094 -0.24342206
-0.34334436 0.474033 1.1971962 0.8894727 0.23589572 0.7079537 -0.1936013 -0.6500457

fc3.bias f4 [8]
00000000: 80f0 8bbd bd85 0c3f dda7 c23d 1fc5 f53d
00000010: d4ab c0be 9236 07bc 608e 0cbd a0c0 7c3e
-0.06832981 0.5489157 0.09504674 0.120004885 -0.37631094 -0.008252757 -0.034315467 0.24682856

fc4.weight f4 [2, 8]
00000000: 4f5d 83be f175 2d3e 4732 b13f 8f1a 593f
00000010: 7ab7 5bbf 7458 51bf 307f e13d 92fb 823f
00000020: fdc2 36be 8328 d53f b3db e4bf d7b0 94bf
00000030: f1c8 d03f b51b abbf 48c6 90be f310 89c0
-0.25657126 0.16939522 1.3843468 0.8480615 -0.8582684 -0.81775594 0.11010587 1.0233023
-0.1784782 1.6652988 -1.7879547 -1.1616467 1.6311322 -1.336783 -0.28276277 -4.283319

fc4.bias f4 [2]
00000000: 4f5c 333f 63ce 61be
0.70062727 -0.22051387
