models/tiny_taxinet_pytorch/afternoon_morning_overcast_night/best_model.pt (torch_old, 10503 bytes, 8 tensors)

fc1.weight f4 [16, 128]
-0.080104396 0.036860533 -0.06109964 -0.06742739 -0.044779193 0.017102063 -0.03975764 -0.07301006
-0.06470836 -0.030512884 -0.03840701 -0.011130542 0.045348145 -0.07636337 -0.031544186 -0.07371835
0.08020351 0.0025166273 0.007046953 0.068371154 0.011927165 -0.0037088841 0.07429705 -0.07103788
0.06533643 -0.068706885 -0.021402113 0.008016497 0.07447786 -0.049752943 -0.052014995 0.023822434
-0.052864905 -0.065722816 -0.047027905 0.047706477 -0.07285558 0.07210133 -0.08069014 -0.06842831
0.0015046746 -0.08834254 -0.03315526 0.042357452 -0.010958716 -0.063443854 -0.05533075 -0.043287214
-0.061847497 -0.04695992 0.0570867 0.015682086 0.031181574 -0.04450132 0.08035026 -0.024518237
-0.0063412264 -0.06886893 -0.05412082 0.040000565 0.055390783 -0.021869227 0.024149872 -0.05460967
-0.022340313 -0.07384452 -0.062686205 -0.056182157 0.0024945065 -0.0008748174 -0.08600353 -0.08225273
0.069187485 -0.07903779 0.06736883 -0.051792584 0.08549423 -0.0797821 0.024278343 0.07605801
-0.02455984 -0.014139466 0.039344303 0.03197918 -0.08648886 0.046414904 -0.03991216 0.00515043
0.027239352 0.0071035773 -0.029106855 -0.07710401 0.030100077 -0.060686182 0.07033732 -0.077132165
0.017467543 -0.08041453 -0.032049887 0.06925758 0.025224552 -0.01905495 0.035881437 0.029059142
0.08256883 0.07770146 0.0804437 0.045196123 0.05220238 -0.027279872 -0.034822706 -0.06294554
0.030797891 0.05639916 -0.0025322214 0.073815264 -0.015872851 -0.0601808 -0.034267496 -0.08506867
-0.06467982 -0.036735002 0.025809266 -0.02031573 0.054219864 0.029971547 0.025106944 -0.048133396
0.058314614 0.004373938 -0.054068178 0.07426422 0.0058013275 0.06615608 0.00936085 -0.08697078
0.0210056 0.015885144 -0.06710817 -0.035242498 -0.026692674 -0.00045562536 0.06318226 -0.005429201
0.025333755 -0.019678026 -0.007978924 -0.067374624 0.043696918 0.062359087 0.027593404 -0.021369003
-0.0032173544 -0.07998088 -0.023239426 -0.052176103 0.0015573651 0.06652146 -0.036368284 0.041424207
0.02759514 -0.055098154 -0.008822925 -0.044730682 -0.031325024 0.08204756 -0.0755541 0.007883303
-0.0024676472 -0.026052948 0.082436405 -0.028358024 0.067307465 -0.0027454868 -0.08043008 -0.082048185
0.066230945 0.043300875 -0.08408414 -0.04404115 -0.050918207 0.065617554 0.02327238 -0.07143258
0.05048988 0.056809016 -0.013237573 0.037320815 0.08756214 -0.01811929 -0.03456582 0.07307043
0.041276 0.050210156 0.03302525 0.07087473 -0.08037813 -0.0708749 -0.04203778 -0.01949276
0.011084527 -0.01735641 -0.036469825 0.047772117 -0.020804472 0.06290286 0.042153575 0.06971396
0.058265276 0.055681743 -0.016625918 0.00020784885 -0.014089376 -0.086769685 -0.06671199 0.02039235
-0.045923997 -0.06734692 0.0062850043 -0.07389678 -0.057839908 -0.05977778 0.06883993 -0.06463423
0.055418067 0.069561936 0.046470158 0.083310716 0.019375518 -0.06563136 0.062667705 -0.050028507
-0.007524222 0.04250052 -0.067218244 -0.024015538 -0.05130441 0.053891443 -0.01409179 -0.051220518
-0.037298452 -0.017164811 -0.022235803 -0.07818632 0.057382517 -0.07070507 -0.059908792 0.038188137
0.0010043979 -0.07628476 -0.01608684 -0.005921662 -0.004421301 -0.06417975 -0.04339881 -0.031254247
00000000: c60d a4bd 12fb 163d 9e43 7abd 5f17 8abd
00000010: 636a 37bd a019 8c3c e8d8 22bd 4c86 95bd
00000020: d185 84bd 28f6 f9bc ab50 1dbd e05c 36bc
00000030: fabe 393d 6664 9cbd 7a34 01bd a5f9 96bd
00000040: bd41 a43d 00ee 243b 20ea e63b 2d06 8c3d
00000050: 286a 433c c010 73bb 0d29 983d 4f7c 91bd
00000060: 1bcf 853d 32b6 8cbd 7c53 afbc a057 033c
00000070: d987 983d bec9 4bbd ad0d 55bd 4427 c33c
00000080: df88 58bd af99 86bd 55a0 40bd de67 433d
00000090: 4e35 95bd dda9 933d df40 a5bd 2424 8cbd
000000a0: 8038 c53a efec b4bd cfcd 07bd 027f 2d3d
000000b0: 308c 33bc daee 81bd 7fa2 62bd ef4d 31bd
000000c0: cd53 7dbd 0c59 40bd bed3 693d b877 803c
000000d0: 8070 ff3c 0447 36bd ad8e a43d 78da c8bc
000000e0: 10ca cfbb 270b 8dbd cbad 5dbd a2d7 233d
000000f0: 72e1 623d 1827 b3bc f4d5 c53c 64ae 5fbd
00000100: 0803 b7bc cc3b 97bd a061 80bd 431f 66bd
00000110: e07a 233b 0054 65ba 9e22 b0bd 1f74 a8bd
00000120: 2bb2 8d3d 91de a1bd abf8 893d 7624 54bd
00000130: 9917 af3d cc64 a3bd 60e3 c63c 4dc4 9b3d
00000140: b831 c9bc 38a9 67bc 7e27 213d 9afc 023d
00000150: 1221 b1bd 8e1d 3e3d ef7a 23bd f0c4 a83b
00000160: 1025 df3c 20c5 e83b 8071 eebc b5e8 9dbd
00000170: 7094 f63c 1392 78bd 030d 903d 78f7 9dbd
00000180: 1818 8f3c 60b0 a4bd be46 03bd ebd6 8d3d
00000190: b8a3 ce3c 2019 9cbc 6af8 123d 700d ee3c
000001a0: d919 a93d f121 9f3d abbf a43d 921f 393d
000001b0: 2ad2 553d 0a7a dfbc 41a2 0ebd 97e9 80bd
000001c0: dc4b fc3c ce02 673d a0f3 25bb 752c 973d
000001d0: c807 82bc 2480 76bd 135c 0cbd 7c38 aebd
000001e0: da76 84bd 7177 16bd f46d d33c 2c6d a6bc
000001f0: a615 5e3d e486 f53c 14ad cd3c 8627 45bd
00000200: 4edb 6e3d 4053 8f3b 9876 5dbd d717 983d
00000210: 1019 be3b d77c 873d 405e 193c bc1d b2bd
00000220: f013 ac3c 9021 823c 0270 89bd 705a 10bd
00000230: 98aa dabc 00e1 eeb9 b365 813d 70e7 b1bb
00000240: bc88 cf3c d033 a1bc 08ba 02bc b5fb 89bd
00000250: 8afb 323d 3e6c 7f3d 900b e23c 0c0e afbc
00000260: 40da 52bb 04cd a3bd 9c60 bebc 9cb6 55bd
00000270: 8020 cc3a 673c 883d e9f6 14bd 6eac 293d
00000280: 340f e23c 9aae 61bd 088e 10bc 8537 37bd
00000290: ab4e 00bd 8d08 a83d 1cbc 9abd f828 013c
000002a0: 40b8 21bb fe6c d5bc 6bd4 a83d 164f e8bc
000002b0: 7fd8 893d a0ed 33bb 87b8 a4bd e108 a8bd
000002c0: 17a4 873d 425c 313d 4e34 acbd 7e64 34bd
000002d0: 9c8f 50bd 7f62 863d b8a5 be3c 3f4b 92bd
000002e0: 7ace 4e3d 92b0 683d 68e2 58bc b6dd 183d
000002f0: c753 b33d e86e 94bc e494 0dbd f3a5 953d
00000300: 0611 293d 2aa9 4d3d 7c45 073d c526 913d
00000310: 4a9d a4bd dc26 91bd cf2f 2cbd 48af 9fbc
00000320: e09b 353c 082f 8ebc 6261 15bd b2ac 433d
00000330: 246e aabc 37d3 803d 3aa9 2c3d 31c6 8e3d
00000340: 92a7 6e3d 8a12 643d 1433 88bc 00f2 5939
00000350: 20d7 66bc 4eb4 b1bd 4ca0 88bd dc0d a73c
00000360: cd1a 3cbd 2fed 89bd 70f2 cd3b 3257 97bd
00000370: 8ae9 6cbd 8cd9 74bd f3fb 8c3d f45e 84bd
00000380: 0efe 623d 7d76 8e3d 7e57 3e3d cf9e aa3d
00000390: 68b9 9e3c bc69 86bd ed57 803d b1ea 4cbd
000003a0: c08d f6bb 0615 2e3d b8a9 89bd 3cbc c4bc
000003b0: 9324 52bd 46bd 5c3d 40e1 66bc 9bcc 51bd
000003c0: 43c6 18bd 389d 8cbc dc27 b6bc 2620 a0bd
000003d0: ee09 6b3d d2cd 90bd ec62 75bd 2a6b 1c3d
000003e0: 00a6 833a 2f3b 9cbd 8cc8 83bc 800a c2bb
000003f0: 90e0 90bb ac70 83bd f3c2 31bd 7404 00bd

fc1.bias f4 [16]
-0.0023116097 -0.043713413 -0.0045205876 0.04888346 -0.06894421 -0.060262203 -0.022355957 0.049694598
-0.0034620129 -0.037040647 -0.0555066 -0.033666473 -0.004349249 0.015883109 0.010401877 0.034443855
00000000: 607e 17bb d60c 33bd 7021 94bb 063a 483d
00000010: 9f32 8dbd 80d5 76bd d723 b7bc 908c 4b3d
00000020: f0e2 62bb efb7 17bd e35a 63bd dbe5 09bd
00000030: 2584 8ebb 4b1d 823c a26c 2a3c 0015 0d3d

fc2.weight f4 [8, 16]
0.19306827 -0.04103464 -0.68279713 0.23729758 0.8886023 -0.20101228 -0.26033747 -2.864414
0.23080347 0.15578848 -0.04592666 0.69846827 -0.017837502 0.106380165 -0.8928986 0.12777895
-0.1093258 0.24483573 0.7055389 -0.23131824 -0.4823401 -0.19666499 -0.23092958 2.2478254
0.07986801 0.1506972 -0.87915343 -0.193532 0.026268294 -0.20799169 0.7431591 -0.2228177
0.09973207 -0.15285948 0.17166674 -0.082411796 0.13853385 -0.21192625 0.40623575 2.3846323
-0.08740979 -0.16936028 0.18718499 0.8907672 0.19475803 -0.19359545 -0.28456116 0.04958879
0.15908653 0.24534062 0.25737932 0.059676245 0.92323214 -0.19124189 -1.2680789 0.29886106
-0.101255655 -0.03906801 2.1192706 1.1876203 0.020741563 0.111815855 0.6519718 -0.1384847
-0.15206876 0.021686375 -0.22753721 -0.1255492 -0.10780965 -0.0036107302 -0.161756 -0.029712804
0.21349907 -0.04254806 0.07283177 -0.027030652 0.22710457 -0.09893201 0.22421835 0.14963038
0.1558817 0.19665372 0.8203543 -0.120556116 -0.6021545 0.17679188 0.1429111 -1.7773314
0.09829521 0.24808514 -0.06655671 -0.024394775 -0.16786262 -0.057472408 0.5558737 0.07101172
-0.10484502 -0.20390311 0.30666545 -0.10083431 -2.2299457 0.1241633 1.8674599 1.1203088
0.016836256 -0.03673166 -0.30520862 0.5038632 -0.04274857 -0.18495396 -2.2874036 -0.22327766
0.01579839 -0.14319569 0.35950017 0.13997293 0.61396724 -0.017232686 0.32777414 -1.3578643
0.005582273 0.16286886 0.9767303 0.7032007 0.095450014 -0.13676605 -0.10810388 0.15899777
00000000: b0b3 453e f013 28bd cbcb 2ebf 23fe 723e
00000010: 717b 633f 2ad6 4dbe f44a 85be 8f52 37c0
00000020: bf57 6c3e 0487 1f3e 981d 3cbd d1ce 323f
00000030: f41f 92bc d8dd d93d 0195 64bf 7cd8 023e
00000040: 34e6 dfbd 38b6 7a3e 339e 343f b0de 6cbe
00000050: 48f5 f6be 8c62 49be ce78 6cbe 5fdc 0f40
00000060: d791 a33d 5e50 1a3e 3310 61bf 412d 46be
00000070: 9b30 d73c c6fb 54be ad3f 3e3f 532a 64be
00000080: 5440 cc3d 3287 1cbe 68c9 2f3e 84c7 a8bd
00000090: d1db 0d3e 3203 59be 22fe cf3e d19d 1840
000000a0: e703 b3bd c86c 2dbe 6cad 3f3e 5209 643f
000000b0: a66e 473e e33d 46be 00b2 91be 9d1d 4b3d
000000c0: 94e7 223e 923a 7b3e 39c7 833e 146f 743d
000000d0: f158 6c3f ead4 43be 6950 a2bf 5104 993e
000000e0: 205f cfbd c705 20bd 21a2 0740 f103 983f
000000f0: 36ea a93c b6ff e43d a0e7 263f efce 0dbe
00000100: eab7 1bbe a0a7 b13c 84ff 68be f88f 00be
00000110: 4ecb dcbd 00a2 6cbb 5da3 25be 4468 f3bc
00000120: 809f 5a3e e046 2ebd d328 953d 636f ddbc
00000130: 1a8e 683e de9c cabd 7f99 653e b538 193e
00000140: 749f 1f3e 985f 493e bd02 523f 20e6 f6bd
00000150: cc26 1abf ee08 353e 4a57 123e 987f e3bf
00000160: 004f c93d 080a 7e3e e24e 88bd 8dd7 c7bc
00000170: 2ee4 2bbe 3068 6bbd bd4d 0e3f 986e 913d
00000180: fcb8 d6bd facb 50be 4103 9d3e 3882 cebd
00000190: 6eb7 0ec0 5449 fe3d ed08 ef3f 4766 8f3f
000001a0: 30ec 893c f073 16bd 4e44 9cbe 2efd 003f
000001b0: 2019 2fbd 9264 3dbe d264 12c0 e6a2 64be
000001c0: a06b 813c e4a1 12be 6810 b83e 1055 0f3e
000001d0: f52c 1d3f 902b 8dbc 03d2 a73e 7fce adbf
000001e0: 80eb b63b 18c7 263e ff0a 7a3f f604 343f
000001f0: 4c7b c33d 660c 0cbe 9165 ddbd 50d0 223e

fc2.bias f4 [8]
0.20242262 0.16681111 0.85012895 -0.6884395 -0.1424895 0.41155437 0.108945146 0.12745903
00000000: e047 4f3e 88d0 2a3e 0da2 593f 923d 30bf
00000010: c4e8 11be 41b7 d23e a21e df3d 9f84 023e

fc3.weight f4 [8, 8]
-1.9222414 1.1070195 0.90710175 1.6108059 -0.30741388 -2.205533 -3.6703413 1.8960689
2.2664227 -2.0027745 0.42475778 -0.34171605 0.25121197 0.58045214 2.7723188 0.122709915
2.3958192 -2.5115473 -0.9140433 0.36864442 -0.35478 2.7684286 -0.35295415 0.6333801
-0.22584842 0.045593664 -0.3386589 -0.31116235 0.32681182 -0.008060394 0.03345886 0.23418511
-0.11022492 -0.14920881 -0.29111344 -0.17753647 0.24945703 -0.25917295 -0.32887262 -0.013281137
-0.096664965 0.031833768 -0.20881137 -0.26584277 0.21575233 0.036899388 -0.109051555 -0.17344671
1.8491157 -1.7638249 -0.5085433 0.21756843 -0.16051303 1.573384 3.1842015 -0.1338539
3.7861552 -3.6981595 -0.0094911745 -0.3242766 -0.31198007 1.9621222 -2.510461 -0.053943474
00000000: 020c f6bf d1b2 8d3f d237 683f e32e ce3f
00000010: 5a65 9dbe 7427 0dc0 dfe6 6ac0 63b2 f23f
00000020: 120d 1140 752d 00c0 da79 d93e 68f5 aebe
00000030: db9e 803e 8398 143f ac6d 3140 564f fb3d
00000040: 1a55 1940 31bd 20c0 befe 69bf f6be bc3e
00000050: b9a5 b5be ef2d 3140 68b6 b4be 3325 223f
00000060: cf44 67be 6cc0 3a3d b364 adbe ac50 9fbe
00000070: e153 a73e be0f 04bc 280c 093d 39ce 6f3e
00000080: 9abd e1bd 32ca 18be d20c 95be 1fcc 35be
00000090: aa71 7f3e 51b2 84be fe61 a8be 2099 59bc
000000a0: 48f8 c5bd 2064 023d a6d2 55be 8b1c 88be
000000b0: 2eee 5c3e d023 173d 6c56 dfbd 049c 31be
000000c0: d3af ec3f 04c5 e1bf e52f 02bf 42ca 5e3e
000000d0: 875d 24be a664 c93f f5c9 4b40 ff10 09be
000000e0: 5e50 7240 a5ae 6cc0 df80 1bbc 9507 a6be
000000f0: dabb 9fbe d226 fb3f 65ab 20c0 d5f3 5cbd

fc3.bias f4 [8]
-0.2761441 0.5387819 -1.3218304 -0.26404747 -0.2976384 -0.09083152 -1.1879327 1.8774102
00000000: c262 8dbe 9ced 093f bd31 a9bf 3b31 87be
00000010: 0f64 98be e005 babd 2e0e 98bf fa4e f03f

fc4.weight f4 [2, 8]
0.7272643 -3.1862907 1.3873435 -0.15546815 0.3468965 0.34512565 0.7767134 -0.8850489
-2.3681817 1.7829063 3.1316142 -0.18473363 -0.10305068 0.05695054 1.8769094 4.2632294
00000000: fe2d 3a3f 30ec 4bc0 7994 b13f 0b33 1fbe
00000010: 6b9c b13e 4fb4 b03e b0d6 463f 9192 62bf
00000020: 4a90 17c0 4636 e43f 5e6c 4840 d02a 3dbe
00000030: 3c0c d3bd f844 693d 913e f03f 606c 8840

fc4.bias f4 [2]
-0.18781275 -1.5232157
00000000: fc51 40be bbf8 c2bf
