models/tiny_taxinet_pytorch/night/best_model.pt (torch_old, 10503 bytes, 8 tensors)

fc1.weight f4 [16, 128]
-0.036066733 -0.08291774 0.058712244 -0.014718322 -0.03254377 -0.021230062 0.05421815 0.04090254
-0.033301916 -0.049439307 -0.031539626 0.00016609111 -0.026776364 0.0077381656 -0.09496751 0.057386648
0.054026347 0.013619592 -0.053026058 0.040316045 -0.08360588 0.038602762 -0.057777494 0.034374986
-0.045189206 -0.09041003 0.0022000046 0.009697194 0.06999179 -0.042297363 -0.031828117 0.018869938
-0.004480438 -0.062836036 -0.057067346 -0.08195694 -0.03453485 0.04579059 0.0037687372 0.013849485
-0.014093081 0.0429256 0.019202633 0.04782769 0.07664962 -0.0011880092 -0.011195965 -0.0484456
-0.0037695088 0.02517879 0.057319768 0.04508387 0.074262016 -0.08123679 0.016530516 0.002291669
-0.027738964 -0.06363285 -0.073881425 -0.046079338 -0.0051351795 -0.09227463 -0.06640364 0.01235765
-0.07914987 -0.049431853 0.0028339236 -0.039514974 0.076147094 -0.0015060642 -0.04360751 0.0762922
-0.052320886 -0.010767981 -0.003454236 0.0126068 0.010562252 0.0599155 -0.026074456 -0.010618321
-0.03439236 0.019509956 0.06321067 0.032043885 0.033282515 0.07920247 -0.039571416 0.043890104
0.04296557 -0.05229956 0.036670957 -0.065994374 -0.0057832366 -0.074147105 -0.026562108 0.015693255
-0.023584059 0.015595455 -0.07066977 0.011441482 -0.02234713 -0.09216847 -0.0066305334 -0.059939846
0.06603421 -0.044220097 0.009743729 0.049823124 -0.058113657 -0.050084308 0.049399253 -0.003358055
0.06243824 0.07144503 0.016926156 0.039113577 -0.028419975 -0.06904479 -0.022758193 -0.07490966
-0.083895564 -0.029221905 0.01808576 0.061286144 0.01313328 -0.033841766 0.02345883 -0.08770384
-0.0398409 -0.029326577 -0.073216744 -0.038881827 -0.04642963 0.031924076 0.07948104 -0.024642125
-0.08210992 0.036368266 0.057586454 0.035295486 -0.066923745 0.08259644 -0.03431273 0.084976755
-0.05332727 0.07381002 -0.044912767 -0.053499702 -0.078769974 0.08058085 -0.056368228 0.023010932
-0.03507532 -0.030485425 -0.01445578 0.021082602 -0.025480025 -0.045802 -0.06809299 0.03315039
0.005379252 0.036811598 0.07901173 -0.019868664 0.020092689 -0.08514361 -0.0277217 0.021897458
-0.060829975 0.004362792 0.018301934 0.036530465 -0.053796954 -0.009052247 0.05292637 -0.03412858
-0.06629444 -0.07495709 -0.061095197 0.051645838 -0.008575007 0.007159695 -0.0029586256 -0.05379218
-0.018805489 -0.015473574 -0.031681806 -0.08100781 -0.024222218 -0.038184255 -0.026274715 -0.034929127
-0.043719377 0.05172109 0.0625046 0.065618776 0.06287 0.081637 0.041559063 0.059336968
0.0023760274 -0.03144161 -0.06235745 -0.052980106 -0.006698653 -0.08346021 0.05686333 0.026087753
0.0029424056 -0.03404474 0.074897565 -0.06499062 0.027492285 0.038640566 0.03503996 0.0072701946
-0.08198362 0.009660192 0.042045705 0.037087046 -0.046098232 0.07196469 -0.03682485 0.0041505024
0.0407478 -0.051279902 0.014436014 0.06355762 0.012127474 -0.0023148805 -0.026844822 0.01923325
-0.050554123 0.084949665 -0.0492703 0.0072260946 0.0008364916 0.049747564 -0.07838969 0.06861066
0.08243952 -0.057770222 -0.046351377 0.06685207 0.033899523 -0.058165155 -0.07582199 0.08010765
0.04462888 -0.06677467 -0.048317358 0.081608616 0.08830152 0.07712511 0.03002531 -0.043200795
00000000: b6ba 13bd c7d0 a9bd 407c 703d 1e25 71bc
00000010: 9e4c 05bd abea adbc da13 5e3d 6c89 273d
00000020: 9767 08bd df80 4abd b22f 01bd be28 2e39
00000030: 1b5a dbbc 7090 fd3b 537e c2bd 430e 6b3d
00000040: bb4a 5d3d b624 5f3c da31 59bd 7022 253d
00000050: 8f39 abbd ee1d 1e3d 18a8 6cbd c9cc 0c3d
00000060: 5118 39bd e528 b9bd f42d 103b fbe0 1e3c
00000070: db57 8f3d 0040 2dbd 335e 02bd 2195 9a3c
00000080: a3d0 92bb 2eb0 80bd 73bf 69bd 0ad9 a7bd
00000090: 6a74 0dbd ea8e 3b3d ebfc 763b f3e8 623c
000000a0: aae6 66bc c1d2 2f3d d74e 9d3c f8e6 433d
000000b0: 7afa 9c3d f9b6 9bba 486f 37bc e56e 46bd
000000c0: dd09 77bb c043 ce3c 22c8 6a3d dda9 383d
000000d0: af16 983d 795f a6bd 016b 873c d32f 163b
000000e0: d33c e3bc f151 82bd 254f 97bd b0bd 3cbd
000000f0: 0245 a8bb 7bfa bcbd a2fe 87bd be77 4a3c
00000100: 5419 a2bd 0e79 4abd 59b9 393b 74da 21bd
00000110: 02f3 9b3d 2167 c5ba ca9d 32bd 163f 9c3d
00000120: 6d4e 56bd 306c 30bc 7760 62bb c08c 4e3c
00000130: 4c0d 2d3c f569 753d 199a d5bc 77f8 2dbc
00000140: 01df 0cbd 58d3 9f3c 9974 813d 7340 033d
00000150: 3f53 083d e834 a23d a315 22bd 1cc6 333d
00000160: aafc 2f3d 1038 56bd 4934 163d 0f28 87bd
00000170: 4e81 bdbb 70da 97bd c798 d9bc 248f 803c
00000180: 5b33 c1bc 1484 7f3c 50bb 90bd 0e75 3b3c
00000190: 5411 b7bc d3c2 bcbd f244 d9bb 7c83 75bd
000001a0: f23c 873d 2220 35bd 29a4 1f3c 5513 4c3d
000001b0: 9608 6ebd 3425 4dbd df56 4a3d d012 5cbb
000001c0: 3dbf 7f3d c651 923d b9a8 8a3c 8f35 203d
000001d0: 02d1 e8bc 5b67 8dbd 646f babc 3c6a 99bd
000001e0: 70d1 abbd c762 efbc 9628 943c 2e07 7b3d
000001f0: f82c 573c aa9d 0abd bb2c c03c 129e b3bd
00000200: 3630 23bd 4a3e f0bc a9f2 95bd 8d42 1fbd
00000210: ff2c 3ebd d2c2 023d f5c6 a23d 48de c9bc
00000220: 3f29 a8bd e4f6 143d c6df 6b3d 0092 103d
00000230: 510f 89bd 5328 a93d 818b 0cbd 4b08 ae3d
00000240: b26d 5abd b529 973d 73f6 37bd 8122 5bbd
00000250: 2752 a1bd 9307 a53d 5fe2 66bd 6c81 bc3c
00000260: 24ab 0fbd 92bc f9bc f0d7 6cbc 6cb5 ac3c
00000270: 7cbb d0bc e19a 3bbd 5674 8bbd b4c8 073d
00000280: 7044 b03b c2c7 163d e7d0 a13d 9cc3 a2bc
00000290: 6c99 a43c c65f aebd 9e18 e3bc 4c62 b33c
000002a0: da28 79bd c0f5 8e3b f0ed 953c f8a0 153d
000002b0: 325a 5cbd e04f 14bc 52c9 583d 69ca 0bbd
000002c0: 61c5 87bd 1a83 99bd f53e 7abd 968a 533d
000002d0: 307e 0cbc e09b ea3b 80e5 41bb 3055 5cbd
000002e0: f80d 9abc e084 7dbc c8c4 01bd 6ce7 a5bd
000002f0: ac6d c6bc 1867 1cbd 123e d7bc d811 0fbd
00000300: 1713 33bd 7ed9 533d 6902 803d 2363 863d
00000310: fdc1 803d 4d31 a73d d639 2a3d 520b 733d
00000320: 20b7 1b3b ebc8 00bd 876a 7fbd ab01 59bd
00000330: 6080 dbbb 30ed aabd 86e9 683d fcb5 d53c
00000340: 60d5 403b 7f72 0bbd e563 993d cd19 85bd
00000350: 8037 e13c 9245 1e3d 1086 0f3d d03a ee3b
00000360: 07e7 a7bd c845 1e3c 1e38 2c3d 96e8 173d
00000370: 80d1 3cbd 3962 933d a7d5 16bd f000 883b
00000380: 2ae7 263d e00a 52bd 0885 6c3c 7f2a 823d
00000390: 50b2 463c 40b5 17bb ace9 dbbc 0c8f 9d3c
000003a0: d711 4fbd 17fa ad3d a7cf 49bd e0c8 ec3b
000003b0: 0048 5b3a 1ac4 4b3d c68a a0bd bf83 8c3d
000003c0: 0dd6 a83d 78a0 6cbd f1da 3dbd bde9 883d
000003d0: 3ada 0a3d 963e 6ebd 8f48 9bbd 7b0f a43d
000003e0: c6cc 363d 28c1 88bd 6ce8 45bd 6b22 a73d
000003f0: 6dd7 b43d c5f3 9d3d a4f7 f53c 51f3 30bd

fc1.bias f4 [16]
0.062673055 -0.055277623 -0.038440175 -0.04585862 -0.06877458 0.0032127798 0.005688054 0.07502518
-0.068509735 -0.020441495 0.0834862 -0.058500044 0.053058993 -0.060122024 0.04090502 -0.021164462
00000000: bb5a 803d ca6a 62bd 7273 1dbd 40d6 3bbd
00000010: b0d9 8cbd 808d 523b db62 ba3b cda6 993d
00000020: d54e 8cbd ec74 a7bc d0fa aa3d be9d 6fbd
00000030: 6354 593d 8342 76bd 068c 273d 1861 adbc

fc2.weight f4 [8, 16]
0.24916673 0.008128077 0.086026125 -1.421686 0.22658211 -0.023666888 -0.14400022 -0.18502751
0.0038301905 -0.05745274 1.8924574 0.096256554 0.11244567 -0.11062534 -0.14674526 -0.08291146
-0.1572319 -0.0011121035 -0.12692839 -0.3171498 -0.23250508 0.029695183 -0.19075519 0.09929103
-0.16535372 0.18782514 2.2906833 0.24534339 0.037787467 0.09116626 -0.073917866 0.029799342
-0.1256244 0.15630677 -0.24938263 -2.2245147 0.24315217 -0.035923094 0.2011899 0.21606296
0.20791742 -0.21485898 -1.7133147 0.025194585 0.19790247 -0.19183528 -0.13261226 -0.12969148
0.21556133 -0.082811624 -0.24216852 -0.76037735 -0.031820953 -0.09904939 -0.15214546 0.22592142
0.19547959 -0.12144956 -2.8940382 0.097857475 -0.19513977 0.15930766 -0.08887422 -0.24253023
-0.20404007 -0.20264527 -0.13120079 1.9834337 -0.17476895 -0.20348498 0.1629836 0.0956963
-0.13678527 0.015738606 3.0979197 0.09529644 0.17110266 0.037373368 -0.09290478 0.13362664
-0.00597471 0.16818061 -0.08094004 -0.121943206 -0.13628149 0.12582093 0.20351526 0.088285
-0.09570807 0.10520619 -0.14991751 0.13233715 0.15656906 -0.0052284896 -0.1814731 0.09966627
0.21933222 0.23138383 0.058701813 -0.17397985 -0.18640679 0.12848473 0.24831465 -0.12958217
0.06317508 -0.1751531 0.051468283 0.19595456 -0.03223279 0.1458365 -0.045398563 0.05179146
0.1474624 0.08588654 -0.18072352 -3.8493402 0.09600937 0.16246453 -0.13163446 -0.11873549
-0.04053092 -0.20802897 0.32069632 0.09245163 -0.15179089 -0.026425537 0.12662438 0.046817183
00000000: 9025 7f3e a02b 053c 772e b03d cff9 b5bf
00000010: 2405 683e 10e1 c1bc cb74 13be da77 3dbe
00000020: ef03 7b3b 9053 6bbd 0b3c f23f 2822 c53d
00000030: ea49 e63d 8a8f e2bd 6444 16be 7ccd a9bd
00000040: 6601 21be 00c4 91ba 84f9 01be 7561 a2be
00000050: d015 6ebe 5043 f33c 5455 43be 1859 cb3d
00000060: 7c52 29be 3c55 403e 8e9a 1240 4c3b 7b3e
00000070: 08c7 1a3d 60b5 ba3d 4062 97bd c01d f43c
00000080: afa3 00be e20e 203e 295e 7fbe 735e 0ec0
00000090: e2fc 783e 1824 13bd ba04 4e3e 9c3f 5d3e
000000a0: 4ee8 543e fe03 5cbe e54d dbbf e064 ce3c
000000b0: f2a6 4a3e 7870 44be 82cb 07be d8cd 04be
000000c0: 1cbc 5c3e 2499 a9bd 06fb 77be 17a8 42bf
000000d0: b056 02bd 68da cabd 05cc 1bbe f257 673e
000000e0: cd2b 483e 8cba f8bd ec37 39c0 8069 c83d
000000f0: b8d2 47be 8c21 233e b003 b6bd d859 78be
00000100: e1ef 50be 3e82 4fbe 8059 06be 28e1 fd3f
00000110: a2f6 32be 5e5e 50be 2ce5 263e 6cfc c33d
00000120: 7011 0cbe 40ee 803c 5144 4640 c82a c33d
00000130: 8935 2f3e d114 193d dc44 bebd 6cd5 083e
00000140: 80c7 c3bb 8a37 2c3e e4c3 a5bd 5cbd f9bd
00000150: 608d 0bbe 34d7 003e 4e66 503e c4ce b43d
00000160: 9802 c4bd 5876 d73d fa83 19be 6483 073e
00000170: a453 203e c053 abbb 16d4 39be d41d cc3d
00000180: a098 603e e2ef 6c3e 5071 703d c627 32be
00000190: 6ce1 3ebe 8091 033e 3246 7e3e 30b1 04be
000001a0: f061 813d 565b 33be 68d0 523d 50a8 483e
000001b0: 8806 04bd 2a56 153e d8f3 39bd 4823 543d
000001c0: 6200 173e 48e5 af3d 960f 39be 975b 76c0
000001d0: 90a0 c43d 1a5d 263e 2fcb 06be 982b f3bd
000001e0: c003 26bd 8c05 55be 4f32 a43e 4857 bd3d
000001f0: 126f 1bbe 5e7a d8bc d2a9 013e 60c3 3f3d

fc2.bias f4 [8]
0.7740371 -0.40199694 0.80108356 0.7020094 0.13322051 -0.016601622 -0.081566095 1.8000151
00000000: 4c27 463f 8bd2 cdbe d013 4d3f e3b6 333f
00000010: f56a 083e 2000 88bc 200c a7bd e566 e63f

fc3.weight f4 [8, 8]
-0.15690172 1.646558 2.2746584 0.9721475 -2.7307227 0.22257194 0.12141928 0.77428466
-0.7061883 4.9180717 1.8666604 2.244634 -1.1781121 -0.3181968 -0.08640537 0.30729315
-0.27116594 3.4153008 2.343529 2.0886106 -1.1216183 0.32169345 0.16524765 0.15890892
1.8637208 -0.67960113 -2.406956 -1.9037209 0.48680964 0.20910665 -0.28987405 2.4899309
1.2894063 -7.210726 -2.5806687 -2.0856936 -1.8103904 0.26906714 0.25536832 3.2227643
-0.5508575 -0.38734263 3.2421103 1.8007568 -2.716437 -0.19716296 -0.008633941 0.030355196
-0.03269856 0.2919718 0.12611383 0.26558688 -0.059021905 0.34444794 -0.12737599 -0.21345553
-0.87170696 0.4970269 -2.280826 0.6679185 1.3722684 0.049594283 0.23106113 -1.2560469
00000000: d8aa 20be 6ac2 d23f 0194 1140 a9de 783f
00000010: 29c4 2ec0 e6e9 633e acaa f83d 8537 463f
00000020: c2c8 34bf d860 9d40 baee ee3f 15a8 0f40
00000030: 61cc 96bf b1ea a2be 4cf5 b0bd 8755 9d3e
00000040: 43d6 8abe 4a94 5a40 61fc 1540 ccab 0540
00000050: 3091 8fbf 01b5 a43e ae36 293e 05b9 223e
00000060: 678e ee3f 57fa 2dbf 910b 1ac0 20ad f3bf
00000070: 1d3f f93e 0e20 563e 5f6a 94be 075b 1f40
00000080: 440b a53f 44be e6c0 ad29 25c0 017c 05c0
00000090: dfba e7bf 2bc3 893e a3bf 823e c541 4e40
000000a0: ff04 0dbf c651 c6be bc7e 4f40 337f e63f
000000b0: 1bda 2dc0 16e5 49be 6075 0dbc 76ab f83c
000000c0: edee 05bd 547d 953e fc23 013e 01fb 873e
000000d0: f4c0 71bd 7b5b b03e da6e 02be 1694 5abe
000000e0: 3028 5fbf 4f7a fe3e 0ef9 11c0 b5fc 2a3f
000000f0: 7ea6 af3f 6023 4b3d 4a9b 6c3e 25c6 a0bf

fc3.bias f4 [8]
-0.14804983 0.60521287 0.9814977 0.59165454 0.9507956 0.19479936 -0.118042804 0.3686526
00000000: 609a 17be 3bef 1a3f 6f43 7b3f ac76 173f
00000010: 5767 733f 7c79 473e 6dc0 f1bd 09c0 bc3e

fc4.weight f4 [2, 8]
-0.8729971 1.1876717 0.46463254 -0.5458675 1.2993641 -0.9917649 -0.3138468 -1.8717009
3.5201077 2.3382194 2.5483804 -2.7489276 -3.3025877 3.1421602 -0.017537529 1.8911331
00000000: bd7c 5fbf a005 983f 51e4 ed3e f9bd 0bbf
00000010: 9051 a63f 4ee4 7dbf 87b0 a0be e593 efbf
00000020: 7249 6140 63a5 1540 aa18 2340 6eee 2fc0
00000030: 995d 53c0 2719 4940 ddaa 8fbc a610 f23f

fc4.bias f4 [2]
-0.90914005 -0.36977106
00000000: 67bd 68bf a252 bdbe
