src/sim_v2/data/model_weights.pth (torch, 556167 bytes, 10 tensors)

conv1.weight f4 [6, 3, 5, 5]
000000 f7 30 b7 3c 56 de 61 3d 80 42 af bd cf f4 57 3d
       0.022362215 0.055143677 -0.08557606 0.052723702
000010 4a e4 04 3e 81 16 8a 3d 5f 9e 88 3d 3d ca 35 be
       0.1297771 0.067425735 0.06670832 -0.17752929
000020 76 cb a0 3c ea 2c 9f bc b0 cc 47 bd 90 ae 87 be
       0.019628268 -0.019430596 -0.04877919 -0.26500368
000030 3a 71 31 be d0 77 df bd c2 5a 7e be b0 15 1a bd
       -0.17328349 -0.10911524 -0.24839309 -0.03761834
000040 05 f7 6a bc 05 b1 43 3d 57 ac d9 bd 96 96 8e 3c
       -0.014341121 0.04777624 -0.10628574 0.01740579
000050 cc 1a c1 bd ab 72 f0 3d 6d 92 9a bd bc d3 c3 3c
       -0.09428939 0.11740621 -0.0754746 0.023904674
000060 11 d4 c7 3d d9 bc f1 bb 6d 3e a9 ba 64 3b 85 bd
       0.09757245 -0.0073772487 -0.0012912281 -0.065054685
000070 99 a8 99 3d 5c e5 c0 3b 29 0d 07 bb f3 26 b3 3d
       0.075028606 0.005886717 -0.002060721 0.08747663
000080 b5 01 a2 bd da b4 da 3c 47 90 4b bd 99 c5 6c 3d
       -0.07910482 0.026697565 -0.04969814 0.05780563
000090 00 c6 01 39 19 4b 83 3c 97 b8 a6 bd a6 a1 38 3c
       0.0001237616 0.01602702 -0.081406765 0.011269009
0000a0 6c 68 40 3d 19 29 1c bd 43 29 a1 bc ab ec 32 bc
       0.046974584 -0.03812513 -0.019672995 -0.010920684
0000b0 97 e8 fd 3c d2 7d 16 3c a5 ee 2e bc 05 f2 82 bd
       0.030994697 0.009185271 -0.0106770145 -0.06393818
0000c0 1a 81 9f 3c 41 c7 12 3d 31 ac 53 bd 0a 23 cd 3d
       0.01947074 0.035834555 -0.051677886 0.10016449
0000d0 11 b5 cb bc 92 4e 75 bd 58 d7 83 3d cb c0 aa 3d
       -0.024866613 -0.059889384 0.06437558 0.083375536
0000e0 2d bb cd 3c 1a e0 cd 3c 1e 30 8a bd 62 ff 04 3d
       0.025113666 0.025131274 -0.06747459 0.032470115
0000f0 22 bc a3 3d 02 f7 e7 3d 43 92 2f 3d 7a cd a0 3c
       0.07994868 0.1132641 0.042864095 0.019629229
000100 27 7e f8 bc 51 7f 9b 3d a1 f8 7f 3d 04 3b 20 3d
       -0.030333592 0.07592643 0.06249297 0.03911878
000110 66 15 76 3d 7a b8 8e 3c 3e b2 e1 bc fe 32 68 3d
       0.060079 0.01742195 -0.027550813 0.056689255
000120 f5 a1 be 3d 9a 1f 37 bd 91 ce 3b 3d 1f 88 1c be
       0.093082346 -0.044707872 0.045851294 -0.15286301
000130 bb 07 de 3b c0 02 52 bc 4e bc 1a bd 68 c0 2e be
       0.006775824 -0.012818038 -0.037777238 -0.17065585
000140 f4 44 ec bd 54 fd c4 3d aa 6c 80 3d f4 0c 4f 3d
       -0.11536589 0.09618631 0.06270726 0.050549462
000150 03 44 60 bd 61 e6 0f bc 5f ce d8 bd 45 4f a7 bd
       -0.05475236 -0.008782954 -0.10586237 -0.08169416
000160 62 9f a5 3d 39 f9 1b bd 64 bd 63 3d 6c 80 e6 bd
       0.080870405 -0.038079474 0.05560054 -0.11254963
000170 03 68 54 3d 9f 75 a0 bd 37 bb 19 3d 30 51 d2 bd
       0.051857006 -0.078349344 0.037532058 -0.102693915
000180 46 66 6e bd 4a 1c 2a 3d 9e 3e a6 bd 74 fe 51 bb
       -0.058203004 0.041530885 -0.08117412 -0.0032042535
000190 26 41 dc 3b 46 06 bb bc eb 82 a9 3c f7 02 83 bc
       0.0067216335 -0.02283014 0.02069231 -0.015992625
0001a0 cd e8 4c 3b e7 a1 1e bd a0 5f f8 bc 63 c6 91 3d
       0.003126669 -0.03872862 -0.030319035 0.071179174
0001b0 bd 4b 2f 3d d5 33 0c bc d9 a7 b5 3d b3 81 7a 3d
       0.04279684 -0.00855728 0.08869905 0.061158847
0001c0 a0 b4 f4 bd ee 06 20 3c 65 f8 eb bc d2 93 bc bd
       -0.11948514 0.009767277 -0.028804967 -0.09207882
0001d0 6d 2b da bc 1f fc 92 3d 49 69 2a bd f3 a8 37 bb
       -0.026632035 0.071769945 -0.041604314 -0.0028024286
0001e0 d6 98 ed 3c b6 22 7c 3d 81 d0 54 bd 07 13 98 3d
       0.029003542 0.06155654 -0.051956657 0.07425504
0001f0 07 e3 e2 bc 1a 81 4a bd 73 f4 8d 3d 99 3e 9c bd
       -0.027696146 -0.049439527 0.069313906 -0.07629127
000200 ee a6 ae 3d b3 9b a5 bc 58 69 02 3d f9 9c 9a 3d
       0.08527933 -0.020215845 0.031838745 0.075494714
000210 23 a9 13 be 37 8d ab bc f5 7e 67 3d 0d 94 c9 3c
       -0.1441999 -0.02094136 0.05651756 0.024606729
000220 c4 23 11 be 68 f6 76 3d 4b 89 cf 38 be 15 8d 3d
       -0.141738 0.060293585 9.896102e-05 0.068889126
000230 fb ec e1 3c 35 a8 95 3d 94 aa bf bc 78 f5 9e 3c
       0.027578821 0.073074736 -0.023396768 0.019404158
000240 ec cb ab bd 41 66 85 bc e3 22 dc bc 4a 8c 7b bd
       -0.083885044 -0.01628411 -0.026872104 -0.061413087
000250 6d 3c 80 bb 21 4c a9 3d 5a 54 ee b2 4d 9c 35 99
       -0.0039134533 0.082664736 -2.7745205e-08 -9.389045e-24
000260 8c 87 53 b4 9d ee 17 b3 9c 7a ee 9a f3 71 3e b2
       -1.9700218e-07 -3.5374445e-08 -9.863258e-23 -1.1085365e-08
000270 5a da 4e b7 93 07 ac b6 82 34 90 b2 58 ac 53 b7
       -1.2329396e-05 -5.126881e-06 -1.6787684e-08 -1.2616707e-05
000280 5c 58 4f b7 4b 51 e1 b6 6b b6 1a b3 e1 db 45 b7
       -1.2358734e-05 -6.7149863e-06 -3.6021827e-08 -1.179331e-05
000290 e9 5b d5 b6 ba 02 f3 b1 9d 56 ce 87 e3 06 a6 b3
       -6.3585944e-06 -7.0725408e-09 -3.1046342e-34 -7.73123e-08
0002a0 28 b5 a5 b1 37 c2 1f 02 9a 0b 69 b2 eb 11 5a b7
       -4.822727e-09 1.1737212e-37 -1.3565023e-08 -1.2997984e-05
0002b0 a6 1d e4 b6 36 e4 bd b2 23 2d 5a b7 df c0 2a b8
       -6.798381e-06 -2.2106274e-08 -1.3004322e-05 -4.0710784e-05
0002c0 30 37 96 b8 cf 0b eb b6 1c 22 33 b8 f7 bb 98 b8
       -7.162837e-05 -7.0049205e-06 -4.2708692e-05 -7.282936e-05
0002d0 e3 bf 90 b8 d4 0c a1 b6 b3 08 31 b8 03 30 92 b8
       -6.902197e-05 -4.7996673e-06 -4.220819e-05 -6.9707654e-05
0002e0 c3 e9 b6 b6 ee dd d9 b6 6a c1 76 b8 19 36 e2 b8
       -5.451236e-06 -6.49294e-06 -5.88311e-05 -0.00010786596
0002f0 17 db 01 b7 4c dc 6e b8 86 49 3e b8 c2 f8 bb b8
       -7.74001e-06 -5.694879e-05 -4.5368004e-05 -8.9631896e-05
000300 4b 3e 12 b7 52 4a 4c b8 b5 52 bf b8 f7 3c c9 b8
       -8.716782e-06 -4.8706606e-05 -9.122995e-05 -9.5957825e-05
000310 03 12 04 b7 a3 5e 5e b8 f7 88 ca b8 eb 2a 0d b7
       -7.872007e-06 -5.3017062e-05 -9.657622e-05 -8.4142475e-06
000320 58 4d 84 b7 15 5c 80 b8 dc d1 7b b8 1c fc 81 b7
       -1.5771642e-05 -6.120667e-05 -6.003851e-05 -1.5495396e-05
000330 3e a3 8b b8 a6 36 4c b8 88 70 05 b8 bb f5 dd b6
       -6.658443e-05 -4.8688285e-05 -3.1814474e-05 -6.61492e-06
000340 48 40 48 b8 82 e7 03 b8 db e0 aa b8 08 e5 d5 b7
       -4.7743582e-05 -3.1448442e-05 -8.148114e-05 -2.549823e-05
000350 7e db a1 b8 ad 6e a4 b8 69 40 d2 b7 12 53 9a b7
       -7.717962e-05 -7.8407444e-05 -2.5063944e-05 -1.8396913e-05
000360 9d 3d a8 b8 64 92 9c b8 42 56 9a b7 a6 9d b2 b8
       -8.0223406e-05 -7.465927e-05 -1.8398398e-05 -8.517066e-05
000370 d9 53 78 b8 16 f4 5f b7 50 b7 f4 b5 c5 91 67 b8
       -5.9205897e-05 -1.33486665e-05 -1.8232768e-06 -5.521045e-05
000380 d1 9c 6f b7 b9 da 7e 3d de 75 c3 bd 1d fe bb 3d
       -1.4282022e-05 0.06222031 -0.09543966 0.09179328
000390 cb 4c d9 bd 4f be ba bd 50 c8 d2 3c 81 27 b2 3d
       -0.1061035 -0.0911833 0.025730282 0.08698941
0003a0 56 d7 8b 3d 0c ee 8a 3d c3 f7 38 3d 71 7b d2 bd
       0.068281814 0.06783685 0.04515816 -0.10277451
0003b0 e2 8a 8f 3d 5a 9d d0 3d 9b e4 6d 3b f3 19 d7 bd
       0.07008912 0.101862624 0.003629959 -0.10502996
0003c0 f2 71 d2 3d 87 b7 20 3d 03 f8 cb bd 2c 52 e2 bd
       0.102756396 0.039237525 -0.09959414 -0.11050829
0003d0 61 e2 65 bb 07 92 77 3d da 8b 11 bd b6 38 0d bd
       -0.003507756 0.060441997 -0.035533763 -0.034477912
0003e0 cc 66 72 3d 5b c3 94 bd aa 95 94 bd a8 e3 ff bc
       0.059180066 -0.072638236 -0.07255109 -0.031236485
0003f0 14 e8 03 be 8c 14 f8 bd f8 1a 83 bd 08 d0 23 bd
       -0.128815 -0.12113294 -0.06401628 -0.039993316

conv1.bias f4 [6]
000000 5c 79 50 bd f7 8a ce bd c7 ce 01 00 f1 2f 71 bd
       -0.050896987 -0.10085099 1.66013e-40 -0.05888361
000010 8f 37 a0 3c 89 71 b2 bd
       0.019557742 -0.08713061

conv2.weight f4 [16, 6, 5, 5]
000000 32 65 bf 3d 26 e1 e6 bc e4 61 cf 3d 4f de da 3d
       0.09345473 -0.028183531 0.10126093 0.10686933
000010 f8 af 05 bd bf 40 1f bd da 5f 4c 3d e4 9b 65 bd
       -0.03263852 -0.038880106 0.0498961 -0.056056872
000020 eb 36 d8 bc 79 18 80 3d fd 23 b4 bd 11 5b 76 bd
       -0.026393374 0.06254668 -0.08795927 -0.06014544
000030 66 1b ca bd d5 6a 97 bd ee bd 95 bd 47 43 89 3d
       -0.09868507 -0.073934235 -0.07311617 0.06702285
000040 a8 ea 33 bd 03 41 81 bd 3d cf 2b 3d 81 77 d3 bc
       -0.043924958 -0.06311228 0.041945685 -0.02581382
000050 00 ac 99 bd af 99 c9 3b c7 41 72 3d 30 b9 9a bd
       -0.075035095 0.0061523537 0.05914476 -0.07554853
000060 b5 2d 69 3d c4 da 83 bd af 94 32 3c 20 95 b1 bc
       0.056928355 -0.064382106 0.010899707 -0.021677554
000070 fb 88 57 3d 25 a3 3a bd 75 a9 f2 3c 94 4a 49 3d
       0.05262087 -0.045565743 0.029621819 0.04914339
000080 61 9b 4a 3c 0a 7f 6e bd 21 ca 63 bd 21 ef 66 3d
       0.012366147 -0.058226623 -0.055612687 0.056380395
000090 a8 47 c4 3b 09 88 95 3d 33 af 59 3d 6a 07 a0 bd
       0.0059899874 0.07301337 0.0531456 -0.07813914
0000a0 e3 64 24 3d 91 09 5c bc 05 91 36 bd 74 b7 12 3d
       0.040135276 -0.013430015 -0.044571895 0.035819486
0000b0 93 bf 36 3d 48 8b 27 3d 97 12 f4 bb d6 75 9e bd
       0.044616293 0.040904313 -0.007448505 -0.07737319
0000c0 bb 4f 6e 3d a4 63 2e 3c b7 6c 0e 00 09 cc 03 00
       0.058181506 0.010643873 1.324696e-39 3.487e-40
0000d0 dd 4a 09 80 54 30 00 00 e3 89 04 00 f9 b5 07 80
       -8.53375e-40 1.7337e-41 4.16806e-40 -7.08128e-40
0000e0 b4 a3 01 80 23 a4 08 80 fa 2a 03 00 63 9e 0d 00
       -1.50561e-40 -7.93565e-40 2.90924e-40 1.25068e-39
0000f0 07 2c 01 00 4b a2 03 00 c3 24 02 80 2f b3 09 00
       1.0763e-40 3.33726e-40 -1.96859e-40 8.90798e-40
000100 9d 14 12 80 44 1b 0d 80 88 9d 0a 00 ee b7 08 00
       -1.660434e-39 -1.203643e-39 9.74867e-40 8.00666e-40
000110 11 d9 01 00 66 60 0e 00 4e 09 03 00 c3 52 06 80
       1.69704e-40 1.320278e-39 2.78844e-40 -5.80702e-40
000120 62 d4 0a 80 60 94 01 00 5e d6 0c 80 60 c5 40 bc
       -9.94544e-40 1.45062e-40 -1.178926e-39 -0.011765808
000130 e5 f4 8c bd a4 e4 0b 3d cf 0b 41 bd 0d 8d 1e bc
       -0.068826474 0.034153596 -0.047130402 -0.009677184
000140 4d 74 fd bc 60 89 3f bc 63 2d c7 3c 73 5c 26 3d
       -0.030939246 -0.011690468 0.024313634 0.04061551
000150 3a ee 44 3d 73 33 0f bc 9c 93 2b 3d 7b f7 45 bd
       0.048078753 -0.008740294 0.04188882 -0.04833172
000160 7e e0 4e 3d 4d 06 a8 bc 63 ab b7 bb c7 dc c1 3c
       0.05050706 -0.020510817 -0.0056051477 0.023664845
000170 82 2e 28 bd 37 c5 82 3d 48 bd c1 3c f2 00 a0 bc
       -0.04105998 0.06385272 0.023649827 -0.0195317
000180 00 5f 8f bd 1c 43 5d 3c ab cd 00 3d 5f 50 b7 3b
       -0.07000542 0.01350477 0.03144614 0.005594298
000190 71 9e 6d bd f2 a8 ef bc 79 df a2 bc 4f 35 36 3c
       -0.05801243 -0.029255364 -0.01988195 0.011121108
0001a0 16 3e 3e bd ec a7 5e 3d 2c c5 25 3c 7d d5 22 3c
       -0.04644593 0.05435936 0.01011781 0.009938595
0001b0 39 d1 a7 bd 2d fb 87 bd 5a 80 9c 3c be 83 6f 3d
       -0.08194203 -0.06639705 0.019104172 0.05847525
0001c0 73 2f 68 3d 03 fa c2 3c 6a 9c f2 bb e0 74 2a 3d
       0.056685876 0.023800856 -0.0074039 0.041615367
0001d0 e7 6e 15 3d 96 87 c7 bc 8c d5 04 bd 0e 33 95 3d
       0.036482718 -0.024356645 -0.032430217 0.072851285
0001e0 75 e9 ef 3c 17 09 53 bd 48 80 91 bc 3c 99 46 bd
       0.029286126 -0.05152234 -0.017761365 -0.04848598
0001f0 a7 e1 fd 3c b6 ca 8c bd 2c a6 fc bc 30 39 7d 39
       0.030991388 -0.068746015 -0.030840956 0.00024149264
000200 52 8f 4d 3d f4 3a 63 3c cf 48 1e bd 6a 66 a9 3c
       0.05018551 0.013869036 -0.038643654 0.020678718
000210 40 c9 07 bd 5f f4 0a 3d 64 3a 4d 3c 21 64 75 bd
       -0.03315091 0.033924457 0.012526128 -0.059909943
000220 05 0c 13 bd 7d 80 63 bd f1 96 00 bd 9a b4 11 bd
       -0.035900135 -0.055542458 -0.03139395 -0.035572626
000230 42 31 6c 3d 51 ae 86 bd 73 5f 50 bd 60 f6 ad bd
       0.057664163 -0.06576217 -0.050872277 -0.08494258
000240 6c f0 79 bd 93 d7 8f 3c 2b a7 8c bd d1 c6 86 bc
       -0.0610203 0.017558848 -0.06867822 -0.016452225
000250 ed 23 a5 bd 65 f3 b4 bd dc 70 a7 b9 15 5c 97 ba
       -0.08063493 -0.08835486 -0.0003193681 -0.0011547828
000260 44 f9 8d b9 5a 1b 48 ba 1f db a1 ba 90 23 77 b9
       -0.00027079333 -0.000763347 -0.0012348628 -0.00023569004
000270 b4 2d d6 b7 14 9b d2 b6 30 b0 f9 b9 0f dd dc b9
       -2.553207e-05 -6.276541e-06 -0.0004762425 -0.0004212637
000280 f8 56 84 ba 6a 7b 2d ba 36 68 f1 b8 ff a3 38 ba
       -0.001009672 -0.00066178164 -0.00011511186 -0.000704348
000290 70 a1 45 ba c2 db 33 ba ae d1 f1 b9 61 3a 67 b9
       -0.00075390097 -0.00068610546 -0.00046123326 -0.00022051625
0002a0 05 0e f4 b9 a3 d3 e7 b9 66 76 f4 bb 90 7c c6 bb
       -0.00046549752 -0.00044217435 -0.0074604033 -0.0060573295
0002b0 74 87 10 ba fc 53 8b bb 28 d5 ea b9 64 dc 56 bb
       -0.0005513348 -0.004251955 -0.00044790772 -0.0032785172
0002c0 71 3b 4d bc 9d aa 09 bc b6 ac 24 bc 41 df 03 bc
       -0.012526379 -0.008402494 -0.010050943 -0.008048833
0002d0 a3 3e 6a ba af 14 c3 b9 87 c9 d4 ba a6 38 39 bb
       -0.0008935725 -0.0003720871 -0.0016234376 -0.0028262525
0002e0 81 4f d2 bb d3 d7 3a ba 83 28 38 bc 38 96 61 bb
       -0.006418169 -0.0007127497 -0.0112401275 -0.0034421813
0002f0 52 37 1e bc d7 94 a4 bb 51 1f aa bb 4c 57 8b bc
       -0.009656744 -0.005022626 -0.0051917215 -0.0170094
000300 23 b3 0d 3c 80 fc 6f 3b da 21 f2 bb a6 b2 40 bc
       0.008648667 0.0036619008 -0.0073892893 -0.011761343
000310 f3 7e 47 bc 8d 2f 6d bc 51 eb 3b bc 9c 8c 4a bc
       -0.012176263 -0.014476669 -0.011469678 -0.012362625
000320 52 da 0e 00 d8 0a 03 00 d4 63 00 80 96 40 08 00
       1.364016e-39 2.79396e-40 -3.5812e-41 7.57853e-40
000330 21 9e 07 00 a9 ec 0a 00 78 46 0c 00 2e 02 02 00
       6.99574e-40 1.003253e-39 1.127305e-39 1.84453e-40
000340 f5 44 04 00 21 27 0c 80 b4 16 0f 00 fd eb 00 00
       3.92079e-40 -1.116063e-39 1.385677e-39 8.4657e-41
000350 c2 54 10 80 1b 30 0a 80 4b 75 0d 00 95 ab 0f 80
       -1.499773e-39 -9.35612e-40 1.235938e-39 -1.439084e-39
000360 ac 84 08 00 53 55 0c 80 9b 93 0b 80 cd 46 0a 80
       7.82278e-40 -1.132635e-39 -1.063141e-39 -9.43753e-40
000370 b5 62 01 80 77 c5 04 00 29 46 00 00 15 dc 0e 80
       -1.27245e-40 4.38179e-40 2.5169e-41 -1.364648e-39
000380 94 a9 06 80 c3 fe 09 00 2d 8b a0 94 c1 c7 06 80
       -6.11846e-40 9.17911e-40 -1.6210767e-26 -6.22671e-40
000390 f2 1b 81 2b 6e 44 13 83 05 3c 08 b6 43 a4 8e 9d
       9.173758e-13 -4.327797e-37 -2.0300515e-06 -3.775693e-21
0003a0 fd 76 66 aa 25 b9 2b b1 95 0a b9 ad ea fa b5 30
       -2.0469386e-13 -2.4989018e-09 -2.1036764e-11 1.3240797e-09
0003b0 d4 b1 36 33 df e3 81 34 4a 8d 65 35 ed 8e f6 34
       4.253691e-08 2.419392e-07 8.551475e-07 4.5925063e-07
0003c0 58 f1 57 27 83 69 ed 1e c8 6c 0b 35 dc 23 04 31
       2.9968076e-15 2.513699e-20 5.193983e-07 1.9228912e-09
0003d0 6f 75 80 34 2b d4 b3 b3 f0 83 f6 ae b5 67 07 00
       2.3927302e-07 -8.37393e-08 -1.12102216e-10 6.80052e-40
0003e0 d3 74 da b4 fd 57 8c 9a fe 6d bb b5 14 7e b5 b6
       -4.0690665e-07 -5.8044796e-23 -1.3964598e-06 -5.408898e-06
0003f0 f7 9e 6f b7 2a 92 0f b7 16 5b 32 b7 0f f0 7f b7
       -1.4282522e-05 -8.557496e-06 -1.0630834e-05 -1.5255077e-05

conv2.bias f4 [16]
000000 52 5b dd 3d cd 73 76 bb 67 35 03 be b8 69 87 3d
       0.108084336 -0.0037605644 -0.1281334 0.06611961
000010 78 0f 8c 3e a5 16 b1 be 1f a3 d2 3e 4b 59 78 3d
       0.27355552 -0.3458759 0.41140077 0.06063203
000020 bf 1f 14 3e b2 37 40 3e b6 ad 74 3e 8f 01 10 3e
       0.14465235 0.18771246 0.2389439 0.14063095
000030 9c 7c 9e 3c b8 ae b8 ba 27 80 64 3d 34 c0 39 3e
       0.019346528 -0.0014090156 0.055786278 0.18139726

dense1.weight f4 [120, 1040]
000000 cd 03 13 bc 85 e6 b2 3c 90 f9 e5 3c 63 12 8c bc
       -0.008973074 0.021838436 0.028073102 -0.017098611
000010 7f 42 7c 3c 10 8c 89 3c 03 6b c2 3c e9 2a 88 3c
       0.015396713 0.01679042 0.023732668 0.016622024
000020 ec 2d d1 3c ae 47 ec 3b 89 50 eb 3b ce 6e ca 3c
       0.025534593 0.0072106933 0.0071812314 0.024711039
000030 e9 e5 a2 bc 43 ea 13 3c 2b 81 2f bc f8 9c 88 3c
       -0.01988502 0.00902802 -0.010711948 0.016676411
000040 3d 5c e6 bc 56 c1 90 bb c2 a8 c7 bc 33 af ca 3c
       -0.028120155 -0.0044175787 -0.024372462 0.024741745
000050 9a 43 9f 3c 46 63 b6 bb 1e 3b b3 3c bf da 84 3c
       0.019441415 -0.0055660335 0.021878775 0.016217588
000060 eb e9 57 3b 05 5e 61 bc ba 8d e2 bc 1a 36 ed 3c
       0.0032945822 -0.013755326 -0.027655471 0.028956462
000070 82 ef ac bc 77 e3 8b bc 27 1c ce 3a fb 72 2b 3c
       -0.0211103 -0.017076237 0.0015724943 0.010464425
000080 47 4c 10 bd b0 25 6c 3c 98 ba 5d bc 83 07 3e bc
       -0.035228994 0.014413282 -0.013533257 -0.011598471
000090 ea 07 8e 3c b3 5c a0 3c 40 24 82 3c d8 cb ff 3c
       0.017337758 0.019575452 0.015886426 0.03122513
0000a0 a9 d9 77 bc eb 0e 4f bc 49 d6 04 bd d7 12 13 3d
       -0.015127578 -0.012637834 -0.03243092 0.03590664
0000b0 09 09 d9 3c 8e 26 8a 3d 75 98 30 3d 36 ed e0 3c
       0.026493566 0.06745635 0.043114144 0.027456861
0000c0 4c 60 6e bc 0e 1a 9e 3c 3f fd e8 3c 07 8e fb 3b
       -0.014549326 0.019299533 0.02844107 0.007676843
0000d0 e7 d1 44 3c 27 1a 90 bc 50 e7 41 bc 2d 6b bd bc
       0.012012935 -0.017590595 -0.011834934 -0.023122394
0000e0 ad c0 5c bd f0 d7 f6 bc ee a6 39 bd 5d 4c 93 bc
       -0.053894687 -0.030132264 -0.045325212 -0.017980749
0000f0 7d dd a0 38 31 a1 2e bd 05 3f e1 bc c8 d1 08 3d
       7.67065e-05 -0.042634193 -0.02749587 0.033403188
000100 f9 5f c4 bc 3f af 0a 80 57 a9 10 00 28 47 02 00
       -0.023971545 -9.81221e-40 1.530116e-39 2.09197e-40
000110 e2 0d 03 00 29 10 01 00 7b 6c 13 00 77 35 00 80
       2.80487e-40 9.7633e-41 1.78379e-39 -1.918e-41
000120 04 01 00 80 60 ca 01 00 1a e5 0f 80 f3 55 0d 00
       -3.64e-43 1.64434e-40 -1.459719e-39 1.224694e-39
000130 6d 46 0d 80 cc 95 10 80 e6 01 14 80 f2 5b 03 00
       -1.219125e-39 -1.523105e-39 -1.837391e-39 3.0849e-40
000140 49 0b 0f 00 a9 2b 14 00 f0 dc 00 00 a9 66 04 00
       1.381581e-39 1.852372e-39 7.9257e-41 4.0417e-40
000150 48 fc 07 80 c4 2e 0a 00 63 02 00 80 24 85 07 80
       -7.3335e-40 9.35131e-40 -8.56e-43 -6.9061e-40
000160 36 5e 03 00 f9 2e 81 8a 04 d2 9f 85 d4 54 0d 00
       3.09303e-40 -1.2439917e-32 -1.5029436e-35 1.224292e-39
000170 fb 6b 09 80 ad a6 05 80 52 15 04 00 2b 00 04 00
       -8.65256e-40 -5.1897e-40 3.7499e-40 3.67402e-40
000180 59 f0 08 80 b0 f0 06 00 ef 77 07 80 65 96 03 80
       -8.20904e-40 6.37355e-40 -6.85873e-40 -3.29458e-40
000190 e7 49 05 80 ed 36 42 29 ab e3 ce 2b 90 5e b3 32
       -4.85689e-40 4.3124294e-14 1.4700371e-12 2.0881345e-08
0001a0 04 d2 0a 80 a7 2d 08 00 76 ed 08 00 94 05 09 00
       -9.93694e-40 7.51061e-40 8.19869e-40 8.2852e-40
0001b0 f6 64 09 80 fd d6 0d 80 55 a5 01 80 94 8d 09 80
       -8.62737e-40 -1.270985e-39 -1.51145e-40 -8.77308e-40
0001c0 06 57 10 80 60 fe 0c 80 7f 17 01 00 fe 45 02 80
       -1.500586e-39 -1.193279e-39 1.00264e-40 -2.0878e-40
0001d0 77 c9 11 80 25 98 08 00 2b 80 0a 80 81 04 03 80
       -1.633475e-39 7.89263e-40 -9.64333e-40 -2.77122e-40
0001e0 1c 5f 07 80 8c 43 08 80 09 ad 0b 80 c8 da 12 80
       -6.76967e-40 -7.58915e-40 -1.072264e-39 -1.731523e-39
0001f0 6c d3 0a 00 09 d3 10 00 ac e9 0a 80 ea 65 0d 00
       9.94199e-40 1.545073e-39 -1.00218e-39 1.230421e-39
000200 50 4e 0f 00 1a a8 0b 80 68 61 c5 bb ff a1 f6 3c
       1.405626e-39 -1.070494e-39 -0.0060235746 0.030106543
000210 7b 9b e3 3c 7a 30 a1 3c b4 f1 51 bc bd 42 bb 3c
       0.0277841 0.019676436 -0.012813974 0.022858972
000220 4b 36 84 3a d5 ea 8a 3c 17 90 ef bb b1 da aa bc
       0.0010086981 0.01695768 -0.007310878 -0.020856233
000230 c5 b3 ed 3c fe 11 b3 3c 53 59 a3 3c 1d 27 01 3c
       0.029016385 0.021859165 0.019940054 0.0078828605
000240 25 5c 9e 3c 65 2a f9 3c b0 b1 c5 3c 9d b0 d5 bb
       0.019331047 0.030415723 0.02413258 -0.006521298
000250 f1 a0 03 3d 72 d0 9d 3c 0f af d2 bc 44 59 3d 3c
       0.032135908 0.019264434 -0.02571824 0.011556927
000260 a6 e2 7a bc d3 75 f3 3c c9 c9 4a 3b ed c4 31 3c
       -0.015312826 0.029719269 0.0030943027 0.010850173
000270 b4 b8 6f bc d4 2a 53 3c c6 18 bb bb e8 79 fb 3c
       -0.014631439 0.012888629 -0.0057097403 0.030697778
000280 00 37 bc bc a6 92 e6 3c 14 52 05 bc 7d 79 0a 3d
       -0.022975445 0.0281461 -0.008137245 0.033807267
000290 f0 c2 04 3c 15 34 9e bc 39 0a 5f bc 20 02 1d 3c
       0.008103117 -0.019311944 -0.013613277 0.009583026
0002a0 1e 60 dd 3b fb ab 0f bb 0b fa 23 3d c3 80 0f 3c
       0.006755843 -0.0021922577 0.04003338 0.0087587265
0002b0 6d 66 bc 3c 3c cb 38 bc 6d ad 38 bc ef 5f ac 3c
       0.02299806 -0.011278924 -0.011271817 0.021041838
0002c0 d7 9d 10 3c 11 8f 49 3b 8f 86 09 3d 1e c0 2b bc
       0.008826694 0.003075544 0.03357559 -0.010482816
0002d0 c0 2e df 3c 4c 89 f3 39 fd 0b 46 ba b3 45 37 bc
       0.027243972 0.00046450866 -0.0007554887 -0.011186051
0002e0 df b7 2a bc 1f 60 90 3c 0e 3b 1d 3d ea 4b b2 3b
       -0.010419815 0.01762396 0.038386397 0.0054411786
0002f0 32 f5 b5 bb 7b 1f ea 3a 35 8a c3 3c 8e 1b 08 3b
       -0.005552911 0.0017862165 0.023869613 0.0020768377
000300 98 a0 ef 3c 60 13 90 3c 93 e1 99 bb 2b 5d db bd
       0.029251382 0.017587364 -0.00469608 -0.1071113
000310 4c cd 3c bc 7b 9b b4 bc e1 a2 35 bd e8 0a 46 bc
       -0.011523556 -0.022046795 -0.044344787 -0.012087561
000320 8e 16 39 bd 7b d0 08 be f1 89 02 be 31 ac 50 be
       -0.045187525 -0.13360779 -0.12747933 -0.20378186
000330 17 97 77 be 66 9d 3a be d1 58 70 be c1 df 90 be
       -0.2417873 -0.18224105 -0.23471381 -0.2829571
000340 03 d5 1f be ab 85 89 be d2 fc 99 bd f5 5c 38 3d
       -0.15608601 -0.26859793 -0.07518925 0.045010526
000350 da 06 a4 3d 2c 6d 09 3e f3 12 85 3d 6c 02 c6 3d
       0.08009119 0.13420552 0.06497755 0.09668431
000360 54 6c 45 3c 10 f4 d4 bc 92 e8 d3 3b cf 84 9a bc
       0.012049753 -0.025995284 0.0064669335 -0.018862156
000370 e6 0e 95 3a 21 17 fd 3c 8b e7 9f bb 09 19 17 bd
       0.0011372238 0.030894818 -0.004879897 -0.03688911
000380 27 ee de bb ef c5 fb bc c6 55 03 3d 4f 6c bd 3d
       -0.0068032923 -0.03073403 0.03206422 0.09249174
000390 91 29 b5 bd 27 7f 8a 3d 08 b8 f8 3d a1 05 80 be
       -0.08845819 0.06762534 0.12144476 -0.25004295
0003a0 05 7f 10 3d 2a e0 aa 3b c2 14 b7 3d 6f ff 50 3b
       0.035277385 0.0052147107 0.08939506 0.0031890532
0003b0 7a 11 50 bd 39 85 1b 3d 6d 59 8a 3b 43 90 01 bd
       -0.050797917 0.037968848 0.004222086 -0.03163172
0003c0 5e 55 f2 3c 40 15 0b bd eb 3d 6f bd 3a 28 fb bc
       0.029581722 -0.033955812 -0.05840866 -0.03065883
0003d0 1c f8 95 3d 0a 5e 06 be c1 79 9d bd bb 8b 9c bd
       0.07322714 -0.1312181 -0.07689238 -0.07643839
0003e0 3d dc b3 bc af b3 ca 3c 33 70 a9 bc 33 14 3a 3b
       -0.021955604 0.024743883 -0.020683384 0.0028393387
0003f0 a7 a0 15 3d 94 2b 3e 3c 6a c8 00 bd 1f 4e 29 3a
       0.036530163 0.0116070695 -0.03144113 0.00064584793

dense1.bias f4 [120]
000000 a1 b5 12 3e 95 7a a3 ba 62 b8 29 bd 2f 93 fd b8
       0.14327098 -0.0012472445 -0.041435607 -0.00012091395
000010 38 4d 4f 3d d8 c5 bb 3d 94 ae a5 bb 54 c1 a5 3d
       0.05061075 0.09168595 -0.0050562117 0.08093515
000020 ad 12 50 3e 5e 78 66 3c 55 8b 07 00 24 d4 66 ba
       0.20319624 0.014066784 6.92831e-40 -0.0008805415
000030 dc 5d 31 b3 c9 7e 2e b4 fb 75 c6 3d 87 a6 56 3d
       -4.129639e-08 -1.6251137e-07 0.09690472 0.052404907
000040 f8 f2 94 3d 36 af b1 3b 9e d6 a1 b8 44 b6 3a bd
       0.07272905 0.005422498 -7.717054e-05 -0.04558398
000050 5c d4 9d 39 66 30 f8 bc 9b 4f db 3d 52 e4 66 ba
       0.00030103594 -0.030296516 0.10708543 -0.0008807826
000060 64 24 13 b5 f0 ce 20 bc 82 90 64 3d 82 c7 bb bc
       -5.481472e-07 -0.009814963 0.055801876 -0.022922281
000070 71 01 c3 bd f4 44 c4 bd 91 00 f5 10 87 db 82 bc
       -0.09521759 -0.09583464 9.6636334e-29 -0.01597382
000080 f6 9c 06 80 d3 81 ff bc 98 14 f6 ad e4 c9 96 bb
       -6.0732e-40 -0.031189835 -2.7976108e-11 -0.004601704
000090 32 6b 50 3d ce c4 ce aa da af 94 3d 1d 4b c8 3d
       0.05088348 -3.6729512e-13 0.072601035 0.09779952
0000a0 db 8f af ba 8a fd b2 bd 2f b1 e7 32 61 20 1f b4
       -0.0013394313 -0.08739765 2.6972513e-08 -1.4819808e-07
0000b0 ba cb 9a 3d 08 04 a3 3b dc 66 92 3c 19 ec d4 26
       0.07558389 0.004974846 0.017871313 1.477445e-15
0000c0 68 ef a2 a5 96 9a 66 3c ba b9 1b a4 18 14 32 3e
       -2.8264748e-16 0.014074942 -3.3767584e-17 0.17390478
0000d0 ae b8 63 9a a8 a0 41 bb 99 c7 8f 3c ae d6 d2 3c
       -4.7091683e-23 -0.0029545221 0.01755123 0.025737133
0000e0 4b e1 06 80 c7 46 91 3d 40 52 b7 3d 26 00 fb ba
       -6.31833e-40 0.07093578 0.08951235 -0.0019149825
0000f0 52 83 8d b2 f9 a5 f7 3b d1 ee a2 06 a4 5b df bc
       -1.6474278e-08 0.0075576273 6.1288536e-35 -0.027265377
000100 a1 0d 07 00 83 a9 91 bd dd e6 12 bc 77 b1 03 80
       6.47738e-40 -0.0711241 -0.008966175 -3.39169e-40
000110 0b 9b 0f 3c b8 c3 6b 3c f3 3b 7e bc 6d 0e 7f bc
       0.0087649925 0.014389925 -0.015517223 -0.015567404
000120 e5 6f 22 21 cb bc 67 9b 05 88 a7 3c 2a ca 09 9d
       5.5035826e-19 -1.9168874e-22 0.020450601 -1.8236315e-21
000130 92 dd 00 80 b3 ce 7b 11 9e 8b 04 bd ee e1 1a bc
       -7.9484e-41 1.9864103e-28 -0.03235971 -0.00945328
000140 05 0d 41 bc 95 51 c4 b6 4f 81 03 bb d7 a5 48 b0
       -0.011782889 -5.8507526e-06 -0.0020066088 -7.299525e-10
000150 e1 d3 01 3e 8c be f5 bb ad 0b 01 a1 3a fd 87 bc
       0.12678482 -0.0074995216 -4.3722353e-19 -0.01660024
000160 d1 6f 7e 3c 04 44 8f 9e 9a 3d 9f 3a d6 85 06 80
       0.015529589 -1.5168845e-20 0.0012149096 -5.99024e-40
000170 04 78 79 3c 02 74 56 3d 86 5c 22 bc fe ca ca 3d
       0.015226368 0.052356727 -0.009909755 0.09901999
000180 da 88 24 3e ad 33 3a b1 62 6e 08 bd 3c cd 01 00
       0.1606783 -2.7095937e-09 -0.033308394 1.6546e-40
000190 69 c4 dd 3d c3 2a 4e b9 63 c4 e7 bc ce f4 22 3d
       0.10828478 -0.00019661621 -0.028291887 0.039784245
0001a0 e7 85 cd bc 09 3a 92 bb 11 ae 17 3c 18 21 4b 3c
       -0.025088264 -0.0044624847 0.009257809 0.012398027
0001b0 d9 54 2d b2 68 e2 6a 3d 57 87 ab bd 36 e6 a9 ba
       -1.00892175e-08 0.057344824 -0.083754234 -0.0012962285
0001c0 77 fd 1c 3d 57 a0 db 3c 7e 91 99 b9 1c 39 ad bb
       0.03832766 0.026809854 -0.00029290834 -0.005286349
0001d0 e8 a7 9f 3d 1c 5b 8f b9 2e 2e 22 3d c7 9f 2a bb
       0.077956975 -0.00027342967 0.03959482 -0.0026035176

dense2.weight f4 [84, 120]
000000 16 ee 22 97 b4 4f 0f 00 9d 06 00 00 c4 0b 0b 80
       -5.264553e-25 1.406125e-39 2.372e-42 -1.014411e-39
000010 90 30 b4 9a 5e ff 4e 0a 7b f7 00 00 df 53 06 80
       -7.452471e-23 9.9665684e-33 8.8779e-41 -5.811e-40
000020 7f 0c c4 9d da e3 03 80 b4 fc 01 80 7c 29 03 80
       -5.189369e-21 -3.57244e-40 -1.82488e-40 -2.90388e-40
000030 03 dc 04 80 49 74 02 80 82 a3 62 a6 ed 28 1b a1
       -4.46267e-40 -2.25386e-40 -7.8631096e-16 -5.257021e-19
000040 85 0c 4e a3 1c d7 b4 9f fd 60 02 80 80 10 08 80
       -1.11699335e-17 -7.6588834e-20 -2.18464e-40 -7.40603e-40
000050 2d 93 02 00 62 a7 23 11 dd 41 01 00 ce 3b 10 00
       2.36468e-40 1.2910012e-28 1.15463e-40 1.490822e-39
000060 48 58 0c 00 8c fa fa 86 c2 b0 4b 0a fa 43 01 00
       1.133695e-39 -9.4407694e-35 9.807339e-33 1.16221e-40
000070 b4 6c 16 8e 2a fd 01 00 06 45 00 80 df df 08 80
       -1.8541266e-30 1.82654e-40 -2.4761e-41 -8.14994e-40
000080 d0 d4 04 00 7c 41 0a 80 94 bf 00 00 3c db 0a 80
       4.43685e-40 -9.41846e-40 6.8725e-41 -9.97001e-40
000090 50 4c 91 a6 23 5f 0a 80 7c c9 99 81 24 b3 13 0f
       -1.0082081e-15 -9.52484e-40 -5.649244e-38 7.282161e-30
0000a0 ce 3e 08 00 9c 2d 0e 00 b6 38 0a 80 06 67 01 00
       7.57214e-40 1.302059e-39 -9.38699e-40 1.28793e-40
0000b0 b8 75 42 a3 27 ce 0a 00 b9 32 08 80 8d 7b 03 80
       -1.0541689e-17 9.92308e-40 -7.5288e-40 -3.19828e-40
0000c0 e7 3b 04 00 84 2f 0a 80 3f ab 02 80 91 6d 00 00
       3.88831e-40 -9.354e-40 -2.45103e-40 3.9305e-41
0000d0 fb 67 07 80 a1 62 09 00 65 4c 09 80 db 2e c5 9c
       -6.8015e-40 8.61901e-40 -8.53925e-40 -1.3048478e-21
0000e0 07 82 00 80 d7 22 72 a7 fe 70 72 9e f6 4d 0b 80
       -4.6645e-41 -3.3603133e-15 -1.28347396e-20 -1.038158e-39
0000f0 72 01 09 80 3e 14 04 80 ad 75 09 80 13 9c 08 80
       -8.27038e-40 -3.74604e-40 -8.68734e-40 -7.90673e-40
000100 9a 8a 0a 80 54 f3 0a 80 60 3e 00 00 bc a1 02 00
       -9.68076e-40 -1.005645e-39 2.2376e-41 2.4169e-40
000110 d4 22 06 00 8e f2 07 00 a2 c7 06 80 a8 cf 09 80
       5.63507e-40 7.2986e-40 -6.22628e-40 -9.01012e-40
000120 05 f6 13 80 bb 0e 03 80 8e 5e 07 80 13 82 12 80
       -1.83313e-39 -2.80791e-40 -6.76768e-40 -1.699701e-39
000130 08 fe 08 80 68 b0 01 00 fd 47 09 00 68 d5 0b 80
       -8.25813e-40 1.55118e-40 8.52344e-40 -1.086746e-39
000140 30 43 0a 80 d3 ee 08 00 38 a5 0a 80 31 c5 04 00
       -9.42457e-40 8.20358e-40 -9.77624e-40 4.38081e-40
000150 f1 16 00 00 b8 8f 05 00 af eb 0a 80 70 a8 1e 9b
       8.23e-42 5.10734e-40 -1.002902e-39 -1.3123879e-22
000160 0c 84 04 00 e3 08 0d 00 0f b7 05 00 e3 4d 0a 80
       4.14711e-40 1.19705e-39 5.24847e-40 -9.46295e-40
000170 bf 02 0c a5 c4 d6 07 80 87 5e 04 80 d6 ac 48 9e
       -1.2143995e-16 -7.19892e-40 -4.01252e-40 -1.06236535e-20
000180 69 dc a1 03 72 f6 09 00 3a a9 20 a7 1f 6e 0a 80
       9.513333e-37 9.14927e-40 -2.2296198e-15 -9.57859e-40
000190 dd 3d 09 80 ec 11 0a 80 88 11 31 9b 50 c2 07 00
       -8.48712e-40 -9.24784e-40 -1.4646761e-22 7.12555e-40
0001a0 fa bc 07 80 e6 c5 0d 00 b5 a2 00 80 8f 5a 39 a3
       -7.1064e-40 1.264854e-39 -5.8368e-41 -1.0048047e-17
0001b0 06 ea 06 80 66 1c af 9a e7 51 08 9e 00 6e 08 00
       -6.34965e-40 -7.2424184e-23 -7.216717e-21 7.74145e-40
0001c0 1d 6e 0d 95 d5 7a 30 a5 02 29 06 00 44 67 01 80
       -2.8561587e-26 -1.5307184e-16 5.65724e-40 -1.2888e-40
0001d0 63 69 a2 a3 96 99 09 80 3a 17 c8 a8 00 5a 04 80
       -1.7608708e-17 -8.81616e-40 -2.2214533e-14 -3.99628e-40
0001e0 bf ef 91 3c 89 74 01 00 1d f4 24 bd 87 a2 0f 80
       0.017814515 1.3364e-40 -0.040271867 -1.435836e-39
0001f0 30 76 c9 bc 47 1d 9d 3d 80 09 04 80 54 d3 ac 3c
       -0.024592489 0.076716 -3.7075e-40 0.021096863
000200 d9 3d 2a 3e 32 b8 b0 bd 8b 7f 08 00 07 15 10 00
       0.16625156 -0.086288825 7.80438e-40 1.476911e-39
000210 dc 57 06 80 e3 05 00 80 b7 d0 0b 3d 51 42 0c bc
       -5.82531e-40 -2.112e-42 0.034134593 -0.008560733
000220 83 f0 b1 bd b9 ea ce bd a8 0c 05 00 74 e8 ee bd
       -0.08688452 -0.101033635 4.63718e-40 -0.11665431
000230 8a 1e 8b bd 8f 68 0e be fb c9 0e bd e9 29 73 bc
       -0.06792934 -0.13907073 -0.034860592 -0.014841535
000240 97 eb 02 80 57 4e 3f 3d f7 7f 86 3d fb cb d6 3c
       -2.68185e-40 0.04670557 0.06567376 0.026220312
000250 40 43 0e be e7 ef 80 bc a0 10 00 00 2e 83 66 bd
       -0.13892841 -0.015739394 5.964e-42 -0.056277446
000260 11 bf 02 00 19 88 b5 bc 07 ee 04 00 3a 59 05 00
       2.52213e-40 -0.022159623 4.5273e-40 4.91186e-40
000270 3e 80 9b 3d dd 05 03 00 7f d4 e2 bc cb a3 05 3e
       0.0759282 2.7761e-40 -0.027689217 0.13050763
000280 e6 93 09 80 be c6 b1 bc 9e 84 93 ba 58 f9 06 00
       -8.79575e-40 -0.021701213 -0.0011254733 6.4046e-40
000290 40 b0 39 3a 28 7e 97 3d 1a b8 a1 3d 84 9b 07 80
       0.0007083453 0.07397109 0.07896443 -6.98637e-40
0002a0 98 e2 db a7 ce c3 07 3d 57 dc 04 00 10 af ee 3d
       -6.1030384e-15 0.03314572 4.46385e-40 0.11654484
0002b0 40 b3 05 80 ca 8a 01 00 03 a1 ea 3b 4b ff 14 3d
       -5.2348e-40 1.41624e-40 0.0071603074 0.03637628
0002c0 da 6c 0d 00 31 31 72 bd ec 5f 61 3d 18 a7 84 3d
       1.23291e-39 -0.059128944 0.05502312 0.06477183
0002d0 6e cc 07 80 b6 1c 93 bc 4c 38 1c 80 18 65 bf bd
       -7.16184e-40 -0.017958026 -2.59159e-39 -0.09345454
0002e0 a3 ff 03 80 a5 44 40 bd 40 45 18 bb 20 32 05 00
       -3.67212e-40 -0.046940465 -0.0023234636 4.77159e-40
0002f0 ad 82 09 3c 91 72 9c 3d 1c ab a4 bd f8 bd c3 bc
       0.008392972 0.07639039 -0.08040449 -0.023894295
000300 fc ba 04 00 1b 5d 00 80 80 19 02 bd ab a3 8c 39
       4.3442e-40 -3.34e-41 -0.0317626 0.00026824823
000310 24 c1 03 80 bb 87 02 00 c7 c5 9d bc 93 a1 6e bd
       -3.44792e-40 2.32362e-40 -0.019259347 -0.058259558
000320 8c 13 94 bc 27 ec 08 80 c9 3c 01 80 ba 7d 09 00
       -0.018075727 -8.194e-40 -1.13641e-40 8.71622e-40
000330 a9 6d 1c 3c 82 4e 53 3d 38 64 05 00 32 d0 14 3d
       0.009547629 0.051588543 4.95129e-40 0.036331363
000340 e3 1b ad bd 64 90 06 00 81 e6 81 3d 7e a2 08 80
       -0.084525846 6.0281e-40 0.06342793 -7.92975e-40
000350 82 05 80 3d e7 31 0b 3b 66 ef 4d 3d cc 52 0f 3d
       0.062510505 0.002123946 0.050277136 0.03499107
000360 8f d6 9d bc 72 fa a6 a0 28 a0 99 3b 6a 6a 00 00
       -0.019267349 -2.8287225e-19 0.0046882816 3.8174e-41
000370 77 6a ff 3c a7 5f 04 00 36 ce ee bd 74 4c 24 be
       0.031178696 4.01656e-40 -0.11660425 -0.1604479
000380 bc bc 13 3b 6f fc 05 00 9d e8 a8 b9 4a 11 09 bd
       0.0022542914 5.49734e-40 -0.00032216767 -0.033463754
000390 b9 46 07 00 b3 e5 17 bd 0b 37 c3 3c f0 3e 00 80
       6.68219e-40 -0.037084293 0.023829957 -2.2578e-41
0003a0 cd 12 2e 3d 86 78 4f 3d 07 f1 0a 38 57 ad 79 3d
       0.0424984 0.05065205 3.3126238e-05 0.060956325
0003b0 c4 7c e0 3d 2d ff 0a 00 74 33 e6 bc 4c 49 56 bc
       0.10961297 1.009895e-39 -0.028100707 -0.013078999
0003c0 bf e2 3b bd 02 97 01 00 8e f1 c0 3c 81 8b 00 00
       -0.04587054 1.46007e-40 0.023552682 5.0045e-41
0003d0 1b 8f 9f 3d 62 25 d7 bd b0 b1 05 00 b1 cb 92 3d
       0.07790967 -0.10505177 5.2292e-40 0.07167757
0003e0 5d 86 28 3d 33 1a b2 bb 7f 70 0d 80 ec 3a 05 00
       0.041143764 -0.005435252 -1.234217e-39 4.80315e-40
0003f0 4a d1 0e 80 82 a5 0e 00 91 75 c1 bd 7f 40 17 3c
       -1.360776e-39 1.34507e-39 -0.09446252 0.009231686

dense2.bias f4 [84]
000000 2e 1f 0a 80 00 75 8c 3d 35 10 8d 3b 0a 11 7b bd
       -9.2954e-40 0.068582535 0.0043049105 -0.061295547
000010 c8 16 55 bd f5 51 6c 04 fc 61 eb bd c8 48 26 b9
       -0.05202368 2.77793e-36 -0.114932984 -0.00015858107
000020 2e d8 12 3d 3d 21 ba bc 25 0b dc ba 43 e3 4c bd
       0.035850696 -0.022720927 -0.0016787989 -0.05002142
000030 aa 7d 37 3e 1c 34 fb 3d f1 5d 0c 3e 38 e0 4d 3d
       0.17919031 0.122657984 0.13707711 0.05026266
000040 ae 2c 04 be 3e e1 da bd 8b 13 dd 3d 7a 09 a1 ba
       -0.12907669 -0.10687493 0.10794743 -0.001228615
000050 59 8a 05 00 7d 75 55 3e 2d f3 cc 3d 79 f1 b0 3d
       5.08807e-40 0.208456 0.100073196 0.08639807
000060 7c df 86 3d cb 4f 17 be f8 d5 05 3e f4 0c be bd
       0.06585595 -0.14776532 0.13069904 -0.09279814
000070 9e ab 01 bd 2d ce 2f bd b0 08 05 80 f6 ba 6a 3d
       -0.031657808 -0.042921234 -4.62294e-40 0.057307206
000080 eb 8c a0 ba d2 84 3f 3c 36 35 1f 3e 34 48 18 be
       -0.0012249028 0.011689382 0.15547642 -0.14871293
000090 df ca 15 3e fd af 78 bc fd c2 1c bd 5f 95 07 bc
       0.1462817 -0.015178678 -0.038271893 -0.008275359
0000a0 53 4d 21 3d 05 a6 a9 bb 09 97 9b 3d 68 ab 91 3d
       0.039380383 -0.005177262 0.07597167 0.07112771
0000b0 1c 91 0f 3d b9 16 06 bd 70 17 2c 3e 68 76 96 3c
       0.035050496 -0.032736514 0.16805816 0.018367007
0000c0 de 9c 5c bb 82 ac 82 bc 8d fc d4 bc 6a 25 7a bd
       -0.0033662836 -0.015951399 -0.025999332 -0.061070837
0000d0 91 27 7d bd 6f 9d 76 bd 50 24 35 3d c8 4a 41 3d
       -0.06180531 -0.060208734 0.044224083 0.047190458
0000e0 49 01 28 3e 8e 3d bc 3c 28 a2 08 00 f2 07 ae bc
       0.1640674 0.02297857 7.92855e-40 -0.021244023
0000f0 c6 4f 07 b8 97 0a 8f b9 8a dd 02 80 57 da 93 3e
       -3.2260803e-05 -0.00027282975 -2.63144e-40 0.28877518
000100 19 5a 14 9c 3a ca 36 be e3 62 f1 bb 1d 81 b4 3d
       -4.908554e-22 -0.17850581 -0.0073665245 0.08813689
000110 e8 dd a1 b9 4a 8d 36 3e 40 2e 16 be b5 a6 16 b9
       -0.00030873646 0.17827335 -0.1466608 -0.00014367218
000120 8d f6 3d bc 83 80 07 80 d5 7f 65 3d e7 65 3c bd
       -0.011594427 -6.8895e-40 0.056030113 -0.04599562
000130 36 93 a8 bd 6e 38 ce 3d 19 f6 c9 bc bb ad db 3c
       -0.08231203 0.10069357 -0.024653481 0.02681624
000140 24 93 07 3e c1 4c 8e bb 86 5c a8 bc 47 4d 1d 3e
       0.13239723 -0.004342646 -0.020551931 0.1536151

dense3.weight f4 [4, 84]
000000 72 8d 08 80 34 46 26 3d af 66 dd 3d b8 c9 eb bd
       -7.85425e-40 0.040594295 0.10810601 -0.11513084
000010 2c b5 41 bd 30 93 9b bb e3 3a 8a bc a2 3b 33 3c
       -0.04729192 -0.0047477707 -0.016873783 0.010939511
000020 ce c3 d7 bd d3 52 19 bc c4 7f 9c 3c 3c 6b b9 bc
       -0.10535394 -0.009358126 0.019103892 -0.022634141
000030 62 e0 10 3d e6 29 53 3d c3 b6 de 3d d8 bb 03 3d
       0.035370238 0.05155363 0.10874703 0.032161564
000040 5b 5a 8c 3a 63 80 02 bd 20 b8 c9 3d 20 91 35 3c
       0.001070808 -0.03186072 0.09849572 0.011081964
000050 a0 ef 02 80 46 67 c2 3d 52 f7 b5 3d 9c dd 8a bb
       -2.69632e-40 0.09492354 0.08885063 -0.0042378437
000060 20 08 fe bc 50 f0 7b bd c9 28 0c 3d 9a 47 30 bd
       -0.031009734 -0.061508477 0.034218583 -0.043037035
000070 63 a5 95 bd 9c 1a ca 3d 37 f9 01 00 9b 93 b9 bd
       -0.07306936 0.098683566 1.81237e-40 -0.09061357
000080 fe ba 92 bb a9 b6 ff 3d 95 ba 7d 3d 82 e1 ee bd
       -0.0044778576 0.124860115 0.061945517 -0.11664106
000090 db 26 21 3c a8 9a f3 3c 38 61 88 3e 38 63 51 3c
       0.009835924 0.029736832 0.26636672 0.012780003
0000a0 4f 5a 52 3b d1 41 45 bc 02 8e bf 3d 30 fc 9f bd
       0.0032097285 -0.012039618 0.09353258 -0.07811773
0000b0 e3 00 b8 bd 19 95 f0 bd e1 f6 b4 3d d0 9d b2 3d
       -0.08984544 -0.11747188 0.08836151 0.087215066
0000c0 44 ca 8c 3b c6 fd a1 bd 92 ab 42 bd 24 d8 1e be
       0.004296573 -0.079097316 -0.047526903 -0.15512139
0000d0 77 10 d8 bb 8e 49 b1 bc e8 3a da bc 16 77 ae 3d
       -0.0065937596 -0.021641519 -0.026639417 0.085188076
0000e0 9d 6f 92 3d 4f d1 78 3d 6a aa d5 3b 35 d3 57 3c
       0.07150195 0.060746487 0.006520559 0.013172914
0000f0 e6 68 5e bc 9a e6 72 bc 55 04 04 80 33 19 9a 3c
       -0.013574814 -0.0148254875 -3.68896e-40 0.018810844
000100 92 af 82 bb a7 70 12 bd 05 14 bb bc ef 8c 99 bb
       -0.003988215 -0.035751965 -0.022836694 -0.00468599
000110 cc d9 9e bb bb c7 0c 3e eb 5c 69 bd 0b 28 a4 3c
       -0.0048477408 0.13748066 -0.05697338 0.020038625
000120 0c b2 16 bd 0a 91 0f 3c 19 cb 6a bd cc cb 4b bd
       -0.036790892 0.008762607 -0.057322595 -0.049754903
000130 e9 2d ad bd 72 ee c0 3d 48 3e 2d bd 21 2c 2e 3e
       -0.08456022 0.0942048 -0.042295724 0.17009021
000140 73 63 ce 3c c9 f9 46 bc 64 a3 2d bc 1e 57 9a 3d
       0.025193905 -0.012144514 -0.010598037 0.075361475
000150 a3 03 05 80 c3 f1 d1 bc 12 66 82 bd 34 7c 8e 3e
       -4.60482e-40 -0.025627976 -0.063671246 0.27829134
000160 c9 4f 3d 3d bd da a8 37 d7 02 69 3d a1 28 89 bc
       0.046218667 2.0129019e-05 0.056887474 -0.016743006
000170 b8 66 45 bd 52 a4 a0 bc 45 c2 3c bd 76 f8 e1 3d
       -0.048193663 -0.019609604 -0.046083707 0.11033718
000180 93 4c 44 bc 16 2a 38 be e1 bc da 3b c4 b8 c1 3d
       -0.011981147 -0.17984805 0.006675348 0.09459069
000190 70 8f d7 ba cd fe ff bc 3a 05 0a bc b1 47 e2 39
       -0.0016445946 -0.031249428 -0.008424098 0.00043159493
0001a0 48 c2 04 80 7b 17 20 3d 15 cd 19 3d c5 0b de bd
       -4.37037e-40 0.039084893 0.037549097 -0.108420886
0001b0 e3 49 41 bd 05 dd 70 3d 3b 62 63 3b 18 f6 00 3d
       -0.047189604 0.05880453 0.0034696 0.031484693
0001c0 b0 92 61 3c c8 e6 c8 bd ed 18 01 00 7b 96 91 bd
       0.013767883 -0.09809643 1.00777e-40 -0.0710878
0001d0 c8 35 28 3c 51 d3 1d 3d 7c ed 4c be 81 6a b5 bd
       0.010266729 0.038531605 -0.20012468 -0.08858205
0001e0 87 0d 22 be 07 d0 ab bd 63 97 51 3e d3 8f a2 b8
       -0.15825473 -0.083892874 0.20467906 -7.751551e-05
0001f0 3e a0 f9 bd 85 36 23 bc 0e 9e 38 3d 66 0d 13 bd
       -0.12188767 -0.009961729 0.045072608 -0.03590145
000200 7b ea 3a bd e2 c4 3c bd 14 3a b3 bd 35 fe ce 3d
       -0.045633774 -0.0460862 -0.08751312 0.1010708
000210 c6 61 eb b5 9e 31 88 bd 67 a1 a3 3c f9 4d fe 3b
       -1.753732e-06 -0.06650089 0.019974424 0.00776076
000220 18 8a 0f bd 5a 13 a3 bd 76 a4 ea bd fa 03 8b bc
       -0.035043806 -0.079626754 -0.1145715 -0.01696967
000230 4d ba fe bc ca 63 ab bc 98 74 0b 2f eb 82 6e 3c
       -0.031094695 -0.020921607 1.2683399e-10 0.01455758
000240 ac dd f0 bc 6b 65 90 3c 10 77 03 00 d6 66 25 be
       -0.029402576 0.017626485 3.18218e-40 -0.1615251
000250 05 f4 95 22 3d e8 79 3d 85 2d d2 bd 9a 71 84 bd
       4.0644897e-18 0.061012495 -0.102625884 -0.0646698
000260 f2 fa 9e 3a e2 25 82 3a 8f 41 25 3c 5e 97 07 3d
       0.0012129231 0.0009929503 0.010086431 0.03310334
000270 d0 b6 9e bd 96 34 00 00 0d b0 f1 3c 0a a1 69 3d
       -0.077497125 1.8864e-41 0.029502893 0.057038344
000280 cc cf b1 bd 72 ab 9e 3d d6 fb c1 3d de b9 c2 3c
       -0.08682212 0.07747544 0.09471862 0.023770269
000290 a1 ec 4d 3d 9f 61 83 3c 4f 40 11 3d b4 09 51 3b
       0.050274495 0.01603776 0.03546172 0.0031896653
0002a0 6f a8 10 00 29 b8 0a 00 d8 e5 06 00 40 92 09 00
       1.52979e-39 9.84419e-40 6.33465e-40 8.78984e-40
0002b0 4f d6 03 00 93 e9 0e 80 53 10 06 00 01 1b 09 80
       3.52386e-40 -1.369488e-39 5.56869e-40 -8.36207e-40
0002c0 bf 51 10 80 ce 83 0b 80 b8 8b 06 00 aa cb 08 00
       -1.498693e-39 -1.057473e-39 6.01135e-40 8.07745e-40
0002d0 c5 e7 09 80 9e d3 06 80 5a 64 01 00 d3 03 0b 00
       -9.09663e-40 -6.26927e-40 1.27835e-40 1.011562e-39
0002e0 7b 02 03 80 a4 c9 01 80 83 bc 08 00 e3 51 01 80
       -2.76396e-40 -1.6417e-40 8.02309e-40 -1.21211e-40
0002f0 fc 48 0f 80 b2 8e 0a 00 0f 61 0b 00 1e 89 09 00
       -1.403714e-39 9.69544e-40 1.045009e-39 8.75708e-40
000300 8b eb 03 80 ad b9 05 00 c0 0e 07 80 6a f3 01 80
       -3.60003e-40 5.25785e-40 -6.4814e-40 -1.79156e-40
000310 67 66 0e 80 98 1b 07 80 06 38 07 80 69 3a 06 00
       -1.322432e-39 -6.52747e-40 -6.62946e-40 5.71967e-40
000320 9e 52 0d 00 09 d2 0a 00 1c 24 05 80 19 03 0a 00
       1.223499e-39 9.93701e-40 -4.72131e-40 9.19466e-40
000330 9f 71 0b 00 54 b8 04 80 83 78 0b 80 a3 4a 00 00
       1.05095e-39 -4.33466e-40 -1.053422e-39 2.6775e-41
000340 ba 1b 09 80 19 5f 08 80 c8 3d 0d 00 83 aa 02 80
       -8.36466e-40 -7.68799e-40 1.216024e-39 -2.44839e-40
000350 fa c4 09 80 75 7c 09 00 0f 51 0b 80 68 dd 08 00
       -8.97181e-40 8.71166e-40 -1.039269e-39 8.1411e-40
000360 e7 b7 10 80 7e a2 0e 80 a8 e2 03 80 13 f8 07 00
       -1.53534e-39 -1.343988e-39 -3.56815e-40 7.31841e-40
000370 2d 4c 01 00 06 eb 01 80 eb a3 0a 80 23 2e 09 80
       1.19162e-40 -1.76146e-40 -9.77158e-40 -8.4307e-40
000380 99 89 08 80 77 29 0f 00 2a 34 09 00 bf 63 0e 00
       -7.84045e-40 1.392407e-39 8.45232e-40 1.321479e-39
000390 3d 85 10 80 2c 8c 00 80 eb 81 0e 80 78 52 0b 80
       -1.517165e-39 -5.0284e-41 -1.332303e-39 -1.039775e-39
0003a0 a8 b3 05 80 b6 53 08 00 15 c6 0a 80 fa 9c 02 80
       -5.23626e-40 7.64714e-40 -9.89413e-40 -2.39984e-40
0003b0 95 e7 02 00 fc 19 06 80 40 f6 0a 00 ef 9e 00 00
       2.66747e-40 -5.60334e-40 1.006693e-39 5.7015e-41
0003c0 17 1c 0a 00 dd 2f 05 80 f0 19 01 00 5e dc 04 80
       9.28432e-40 -4.76348e-40 1.0114e-40 -4.46395e-40
0003d0 5d 56 09 00 2c eb 04 00 1f fb 04 00 81 57 07 00
       8.57501e-40 4.51706e-40 4.57427e-40 6.74239e-40
0003e0 c6 c8 0a 80 ca 82 12 00 77 fd 06 00 8f 20 00 80
       -9.90379e-40 1.699957e-39 6.41939e-40 -1.168e-41
0003f0 be e6 0f 00 02 8e 0b 80 37 1d 02 00 ea b3 03 00
       1.460307e-39 -1.061133e-39 1.94151e-40 3.40047e-40

dense3.bias f4 [4]
000000 b0 fd af 3d 33 9d 28 be fe 1c 10 00 55 b9 07 80
       0.08593309 -0.16466217 1.479768e-39 -7.09333e-40
