models/tiny_taxinet_pytorch/morning/best_model.pt (torch_old, 10503 bytes, 8 tensors)

fc1.weight f4 [16, 128]
-0.19406791 -0.03282456 0.09910761 0.11594629 0.06353054 0.14197125 0.1914375 0.06618897
0.15744281 0.17071712 0.19281183 0.17910928 0.18694326 0.16182451 0.27356958 0.2572953
0.2080457 0.05022267 0.08961795 0.04677243 0.096543014 0.1760814 0.10999068 0.07720941
0.054543532 0.02477597 -0.010368083 0.10957093 0.00010370698 -0.05298904 -0.041376166 -0.1386372
0.11606521 0.24012452 0.27116966 0.2240943 0.076151654 0.140359 0.046271063 -0.05812684
-0.19498406 0.04447441 0.09995637 0.051664546 0.10068252 0.0073187714 -0.12857834 -0.371454
0.3181396 0.26182115 0.32147664 0.25471443 0.2670581 0.24126212 0.088315256 -0.07139814
0.0051631643 -0.057439387 -0.083217494 0.054480728 -0.0024660013 -0.05057394 -0.011449959 -0.33357084
0.2672492 0.2953129 0.26870337 0.32824668 0.21766648 0.073336795 0.0410504 0.050623868
0.07708385 -0.014538543 -0.0005926582 -0.14867647 -0.1203197 -0.10052262 -0.32350254 -0.4412252
0.3170915 0.22850592 0.3443376 0.27691615 0.29878584 0.031287666 0.15827236 0.063428715
0.05029799 0.018175151 -0.043763563 -0.07551003 -0.18561138 -0.16901468 -0.085796274 -0.24184096
0.33671376 0.28521362 0.2776945 0.28421915 0.16423616 0.19340931 0.033774447 -0.028576706
-0.060679916 0.02228406 -0.11290061 -0.124375805 -0.10620745 -0.21355803 -0.13525154 -0.18600413
0.35965934 0.36875364 0.37553588 0.31716686 0.25537178 0.27696824 0.073593594 0.04843634
-0.055184763 -0.14857182 -0.1380345 -0.27059686 -0.17872044 -0.28087148 -0.31214127 -0.33123592
-0.32782966 -0.20999843 0.023504807 -0.11121224 -0.23080476 -0.056990847 0.016446484 -0.14769574
-0.19799212 -0.19418584 -0.06533781 0.061402414 0.06449884 0.26835245 0.42643175 0.37272164
0.017742595 -0.20735906 -0.19841349 -0.37204033 -0.4653875 -0.43857625 -0.19737072 -0.0863308
-0.045838322 0.024953173 0.03075029 0.09048818 0.04190683 -0.037945602 -0.03583392 -0.06173745
-0.005179536 0.18164809 0.2821591 0.2355235 -0.02363192 -0.19908106 -0.13014041 -0.13200103
-0.1480039 -0.15639196 0.036480695 0.01659876 -0.0129504185 0.08791349 -0.057993907 -0.3279057
0.30242056 0.24646002 0.39407122 0.23234086 -0.03813219 0.095715396 -0.15087114 -0.02414209
-0.0244635 -0.08564942 -0.0016186273 -0.005216406 -0.023730794 -0.06575908 0.12006883 0.10169844
0.16705337 0.23351192 0.29267958 0.12728256 0.27127394 -0.05967682 -0.059580483 0.037222
0.044145405 0.115698196 -0.081811674 0.044634506 -0.02742842 0.039728545 0.054270696 0.14175512
0.23794378 0.20978896 0.24395369 0.14934276 0.017670823 -0.08550212 -0.07829896 0.018028188
0.10322141 0.043606404 0.073232666 0.11193724 0.07667119 -0.011288244 0.08383075 0.025460172
0.20898789 0.16870056 0.22335932 0.056636125 0.11274577 0.051629025 0.115455255 0.05626108
0.07545927 -0.01410134 0.095589444 0.034730375 0.12387563 0.034229435 0.044319335 0.072555274
0.18557826 0.14598428 0.24025166 0.16221711 0.116842836 0.21332507 0.17984219 0.09317775
0.11042018 0.09466005 0.099633776 0.036548413 0.060967598 0.020363702 0.10947193 0.025043266
00000000: bdb9 46be 0c73 06bd eef8 ca3d 4075 ed3d
00000010: 4d1c 823d e960 113e 3108 443e 158e 873d
00000020: b038 213e 78d0 2e3e 7770 453e 6c68 373e
00000030: 0e6e 3f3e 53b5 253e 5011 8c3e 36bc 833e
00000040: ef09 553e 49b6 4d3d 9e89 b73d 7394 3f3d
00000050: 58b8 c53d af4e 343e cb42 e13d f81f 9e3d
00000060: 0a69 5f3d faf6 ca3c e4de 29bc b966 e03d
00000070: 437d d938 090b 59bd 0e7a 29bd e9f6 0dbe
00000080: 99b3 ed3d 34e3 753e c0d6 8a3e fa78 653e
00000090: 66f5 9b3d 45ba 0f3e ba86 3d3d 6916 6ebd
000000a0: e7a9 47be cd2a 363d edb5 cc3d 349e 533d
000000b0: a332 ce3d 4ed2 ef3b 0aaa 03be 382f bebe
000000c0: 32e3 a23e 6c0d 863e 9698 a43e ee69 823e
000000d0: d7bb 883e 6b0d 773e a1de b43d 3039 92bd
000000e0: c32f a93b 9045 6bbd ef6d aabd 2f27 5f3d
000000f0: a39c 21bb 9f26 4fbd 9c98 3bbc ccc9 aabe
00000100: e3d4 883e 4133 973e 7d93 893e f30f a83e
00000110: f6e3 5e3e 9a31 963d 7724 283d f95a 4f3d
00000120: 23de 9d3d 1233 6ebc 9e5c 1bba a53e 18be
00000130: 2d6a f6bd cede cdbd 20a2 a5be 45e8 e1be
00000140: d159 a23e 75fd 693e 054d b03e f4c7 8d3e
00000150: 75fa 983e 7f27 003d 2612 223e eae6 813d
00000160: 4405 4e3d 0ee4 943c 6c41 33bd 01a5 9abd
00000170: e910 3ebe 2f12 2dbe f5b5 afbd 28a5 77be
00000180: bf65 ac3e 8507 923e f92d 8e3e 2c85 913e
00000190: 862d 283e 170d 463e 1357 0a3d b219 eabc
000001a0: 818b 78bd 108d b63c 6f38 e7bd beb8 febd
000001b0: 4b83 d9bd f5ae 5abe 617f 0abe de77 3ebe
000001c0: 4525 b83e 47cd bc3e 3d46 c03e b263 a23e
000001d0: 17c0 823e c8ce 8d3e 3db8 963d 2f65 463d
000001e0: 6b09 62bd 3623 18be ea58 0dbe ac8b 8abe
000001f0: 7e02 37be 63ce 8fbe fbd0 9fbe c197 a9be
00000200: 4ad9 a7be d409 57be 278d c03c 3ec3 e3bd
00000210: 1558 6cbe 3c6f 69bd c7ba 863c 8d3d 17be
00000220: 72be 4abe a7d8 46be d4cf 85bd 1981 7b3d
00000230: f817 843d 7e65 893e 4355 da3e 5fd5 be3e
00000240: eb58 913c ef55 54be e82c 4bbe 127c bebe
00000250: 4547 eebe 118d e0be 8d1b 4abe 34ce b0bd
00000260: f7c0 3bbd 996a cc3c 08e8 fb3c de51 b93d
00000270: 7fa6 2b3d d96c 1bbd 97c6 12bd 69e0 7cbd
00000280: 19b9 a9bb f501 3a3e 2877 903e 132d 713e
00000290: ba97 c1bc e8db 4bbe 8743 05be 472b 07be
000002a0: 568e 17be 3725 20be c86c 153d 1ffa 873c
000002b0: fe2d 54bc fd0b b43d 058b 6dbd 42e3 a7be
000002c0: ded6 9a3e 0460 7c3e b4c3 c93e c3ea 6d3e
000002d0: 8030 1cbd 6f06 c43d f77d 1abe a2c5 c5bc
000002e0: ae67 c8bc f768 afbd 1f28 d4ba 63ee aabb
000002f0: 1567 c2bc b2ac 86bd a6e6 f53d 4647 d03d
00000300: 0a10 2b3e c01d 6f3e 19da 953e 5c56 023e
00000310: 6be4 8a3e ae6f 74bd aa0a 74bd 1976 183d
00000320: d0d1 343d 2df3 ec3d e18c a7bd acd2 363d
00000330: 91b1 e0bc 66ba 223d f34a 5e3d 4128 113e
00000340: 89a7 733e ebd2 563e ffce 793e 4fed 183e
00000350: 67c2 903c bc1b afbd 355b a0bd daaf 933c
00000360: bf65 d33d a19c 323d 02fb 953d 5a3f e53d
00000370: c905 9d3d 54f2 38bc 75af ab3d da91 d03c
00000380: ec00 563e d7bf 2c3e 4eb8 643e 48fb 673d
00000390: 41e7 e63d f578 533d ce73 ec3d 0572 663d
000003a0: 648a 9a3d 4f09 67bc 66c4 c33d 7041 0e3d
000003b0: 82b2 fd3d 2a34 0c3d 3188 353d dc97 943d
000003c0: 3a08 3e3e e77c 153e 8804 763e 3e1c 263e
000003d0: 4c4b ef3d e371 5a3e 8d28 383e fad3 be3d
000003e0: fa23 e23d 21dd c13d cb0c cc3d cab3 153d
000003f0: 29b9 793d c7d1 a63c d232 e03d 8927 cd3c

fc1.bias f4 [16]
0.04589207 -0.033418342 -0.054085944 -0.021688737 0.053667538 -0.07701448 -0.046043433 -0.0062040836
-0.008541391 -0.06572014 0.094304055 -0.02766793 0.015204465 0.06622506 -0.077881426 0.31114754
00000000: 53f9 3b3d ace1 08bd 3989 5dbd 94ac b1bc
00000010: 7ed2 5b3d c5b9 9dbd 0a98 3cbd a04b cbbb
00000020: 31f1 0bbc 4898 86bd 7c22 c13d dba7 e2bc
00000030: 261c 793c 01a1 873d 4c80 9fbd bb4e 9f3e

fc2.weight f4 [8, 16]
-0.67286986 0.21093749 0.09049982 -0.13997152 -0.06576732 -0.20588738 -0.1438923 -0.33880183
0.019656766 -0.24566 1.0881581 -0.26992655 -2.343622 -0.07387563 0.16125724 0.10480617
0.6622591 0.45018047 0.070123434 0.21916804 -0.08690742 -0.20269433 -0.21557148 0.3949038
-0.07419227 -0.03176701 0.54726845 0.27690405 -0.047996912 1.1744808 -0.019510001 -0.06906387
-0.116102174 0.115108624 -0.04687074 -0.121965736 0.13996089 0.22704346 0.69376624 -0.17584026
-0.09133756 0.14131457 -0.33960673 -0.4765287 -0.08325691 -1.3615814 -0.23533198 0.2692321
0.13493194 -0.18461321 -0.1822586 0.12299684 0.18784511 0.13293386 -0.652314 -0.3003987
0.042717606 -0.1398336 -0.26966903 1.094981 -0.31031933 2.8474288 0.05557114 0.7890912
0.14127299 -0.5309375 0.14593595 0.014843583 0.24247155 -0.204682 -1.1644994 -2.302647
0.054514304 0.11944461 -0.5030796 1.2575428 0.14993064 -4.050556 0.23002541 0.20970237
0.00941538 0.049851533 -0.13459101 -0.21044093 -0.2193852 0.24359487 0.23402263 -0.011539401
-0.0133339185 0.054003686 0.09862196 0.19260012 -0.25013644 -0.18308128 0.1455841 -0.25129682
0.6687636 0.44386348 -0.21204275 -0.12605646 0.21238798 -0.103974745 -0.046017997 0.31438202
-0.03472435 0.1680853 0.50014156 0.114662476 0.1213457 0.56255406 -0.21440789 -0.059387118
0.46235985 0.40855253 0.178662 0.12890485 -0.16280597 -0.15141764 0.42865843 -0.4562782
-0.18073815 0.1837709 0.4589852 -0.5333243 0.3193955 -3.3210757 -0.013345242 0.42177132
00000000: 3341 2cbf ffff 573e f857 b93d b254 0fbe
00000010: 04b1 86bd 24d4 52be 8158 13be 6f77 adbe
00000020: 3a07 a13c 4c8e 7bbe c448 8b3f d033 8abe
00000030: e7fd 15c0 1b4c 97bd 9e20 253e 9ea4 d63d
00000040: d089 293f 0e7e e63e e09c 8f3d 966d 603e
00000050: 84fc b1bd 1a8f 4fbe c5be 5cbe d530 ca3e
00000060: 1ef2 97bd 201e 02bd c919 0c3f 5ec6 8d3e
00000070: 6998 44bd 6355 963f 70d3 9fbc 5c71 8dbd
00000080: fac6 edbd 12be eb3d 88fb 3fbd 2cc9 f9bd
00000090: e851 0f3e 157e 683e aa9a 313f 780f 34be
000000a0: 300f bbbd c4b4 103e efe0 adbe 92fb f3be
000000b0: 9982 aabd 4d48 aebf defa 70be cad8 893e
000000c0: 992b 0a3e 3f0b 3dbe 00a2 3abe c4e5 fb3d
000000d0: 785a 403e d01f 083e 0dfe 26bf dccd 99be
000000e0: a8f8 2e3d 8a30 0fbe 0f12 8abe 5628 8c3f
000000f0: 2de2 9ebe 463c 3640 909e 633d e201 4a3f
00000100: dea9 103e 85eb 07bf 3c70 153e 8032 733c
00000110: 764a 783e 2998 51be 510e 95bf 925e 13c0
00000120: 644a 5f3d 609f f43d d3c9 00bf 2af7 a03f
00000130: 6b87 193e 289e 81c0 c88b 6b3e 38bc 563e
00000140: f742 1a3c 1f31 4c3d 3ad2 09be d47d 57be
00000150: 84a6 60be ef70 793e a1a3 6f3e c10f 3dbc
00000160: 8276 5abc f832 5d3d 4ffa c93d f738 453e
00000170: e211 80be a979 3bbe 0014 153e faa9 80be
00000180: 1734 2b3f 1342 e33e bc21 59be f214 01be
00000190: 3c7c 593e b6f0 d4bd 5e7d 3cbd aef6 a03e
000001a0: 1f3b 0ebd 8e1e 2c3e 4709 003f 29d4 ea3d
000001b0: 1884 f83d 8b03 103f be8d 5bbe e83f 73bd
000001c0: 6eba ec3e cc2d d13e 2cf3 363e a2ff 033e
000001d0: 9cb6 26be 3a0d 1bbe 1e79 db3e 4c9d e9be
000001e0: 6c13 39be 702e 3c3e 1c00 eb3e f187 08bf
000001f0: cf87 a33e 818c 54c0 00a6 5abc 69f2 d73e

fc2.bias f4 [8]
0.05557434 0.26090756 -0.09727352 0.37536007 0.2514725 -0.13256858 0.17226265 0.3819106
00000000: eba1 633d ad95 853e 5737 c7bd 322f c03e
00000010: 01c1 803e 0fc0 07be 9f65 303e c989 c33e

fc3.weight f4 [8, 8]
0.94526 -0.42526537 0.74490625 0.41763362 2.1416605 0.11984911 -0.34803838 0.98008615
0.09718837 0.16776879 -0.34635678 -0.10619666 -0.20371619 0.2707447 -0.28718698 0.05472382
-2.2957666 0.7432665 -0.29296878 -0.20022602 -0.34397224 0.30917242 0.88123006 0.2129648
-1.5065328 0.45513886 -0.62154734 0.5842979 -1.9089918 -0.3426892 0.47113037 -0.008687827
-2.4082603 0.6498461 0.056555204 0.102262 -0.82582474 0.11256617 0.5938993 -0.15316539
-2.6984956 0.67110586 -0.3032132 0.083347514 -0.8673087 0.061794933 0.63392544 0.096060656
-0.8878202 0.46468303 -0.16951048 0.7048228 -1.8282759 9.474158e-05 -0.14279272 -0.24635074
0.819661 0.18328027 -0.20155637 0.50276506 -0.094551444 0.0279604 0.3941648 0.48836556
00000000: 8ffc 713f 62bc d9be 2db2 3e3f 13d4 d53e
00000010: f710 0940 7373 f53d 1632 b2be ede6 7a3f
00000020: b20a c73d 95cb 2b3e ad55 b1be a27d d9bd
00000030: fa9a 50be 0d9f 8a3e 2c0a 93be 1626 603d
00000040: d7ed 12c0 b746 3e3f 0100 96be 0d08 4dbe
00000050: 211d b0be d94b 9e3e 4b98 613f 7213 5a3e
00000060: 11d6 c0bf f607 e93e ba1d 1fbf 8c94 153f
00000070: d859 f4bf f574 afbe 0038 f13e 6357 0ebc
00000080: f020 1ac0 505c 263f 6ea6 673d bd6e d13d
00000090: 4069 53bf 1889 e63d c909 183f 63d7 1cbe
000000a0: 27b4 2cc0 98cd 2b3f c33e 9bbe 1ab2 aa3d
000000b0: f107 5ebf af1c 7d3d f048 223f 73bb c43d
000000c0: 2f48 63bf efea ed3e 2894 2dbe 446f 343f
000000d0: f204 eabf 00b0 c638 4138 12be 5e43 7cbe
000000e0: 4ed5 513f d3ad 3b3e cb64 4ebe 36b5 003f
000000f0: 30a4 c1bd 350d e53c f8cf c93e 0d0b fa3e

fc3.bias f4 [8]
0.69921947 -0.020550665 0.3407632 0.30232322 0.50803846 -0.017445387 0.040652167 -0.027123297
00000000: 0c00 333f de59 a8bc 8478 ae3e 1cca 9a3e
00000010: cf0e 023f a1e9 8ebc e382 263d ad31 debc

fc4.weight f4 [2, 8]
0.27099195 0.21938527 1.6554854 0.056185894 0.87312716 1.0337781 -0.46431258 -0.67707896
0.92070085 0.24684878 -1.4950343 -1.3913666 -1.3036451 -1.5305295 -1.2553723 0.06829739
00000000: 75bf 8a3e 88a6 603e f2e6 d33f 2e23 663d
00000010: 4385 5f3f d752 843f 61ba edbe 0c55 2dbf
00000020: 0db3 6b3f edc5 7c3e 495d bfbf 4d18 b2bf
00000030: d8dd a6bf 64e8 c3bf 0ab0 a0bf 81df 8b3d

fc4.bias f4 [2]
0.16328362 0.14812712
00000000: d233 273e a3ae 173e
